model_202104240144.tflite (tflite, 322168 bytes, 13 tensors)

sequential_5/conv2d_20/BiasAdd/ReadVariableOp/resource f4 [16]
000000 f2 1d fd 3c 24 e4 a5 3c f4 59 d1 ba 5c c2 f9 3c
       0.030898068 0.020250387 -0.0015972243 0.030488186
000010 cb 05 d7 3c f2 c6 a1 ba 56 15 b7 3d 10 50 26 3d
       0.02624788 -0.0012342616 0.089396164 0.040603697
000020 0b 28 63 3b 7c ee c3 3b 45 15 84 3c 01 b8 b9 bc
       0.0034661319 0.0059793573 0.016123423 -0.022670748
000030 35 ec b6 bb 6b 12 0e bb 39 75 1a 3d 5b 73 04 3c
       -0.0055823573 -0.0021678458 0.03770945 0.0080841435

sequential_5/conv2d_21/BiasAdd/ReadVariableOp/resource f4 [32]
000000 5d dc e9 3b f5 5c ce 3a df 4f e2 bc e5 bf 83 bd
       0.007136865 0.0015744256 -0.027625976 -0.06433085
000010 20 40 b4 bc 25 46 f1 bc 5a 20 59 3c 23 8f 67 bd
       -0.022003233 -0.029452393 0.013252342 -0.05653299
000020 c7 81 c8 bc aa 26 73 bc bc b9 c0 bc fa 6c 2a bc
       -0.024475945 -0.014840761 -0.023526065 -0.010401959
000030 10 e5 5f bc 3e 61 9a bb 4a d0 3e bd 62 33 ad bc
       -0.013665453 -0.004711299 -0.04658536 -0.021142665
000040 e6 fe 57 bd b1 d1 9f bc 06 3a 5e bd 1e 4a a1 bc
       -0.052733324 -0.019509168 -0.054254554 -0.019688662
000050 03 f4 e1 bb 91 8e 0b bd 89 92 cd bc 61 8d ec bb
       -0.0068955435 -0.03407151 -0.025094287 -0.007219002
000060 56 25 27 bc d5 42 8d bc 27 86 8f bc d6 6d 4e bd
       -0.010201773 -0.017243782 -0.017520024 -0.050397716
000070 ce 1b b1 bc c2 f8 6a bd 94 95 bd bc fd eb 2b bb
       -0.021619704 -0.05736614 -0.023142613 -0.002623319

sequential_5/conv2d_22/BiasAdd/ReadVariableOp/resource f4 [32]
000000 f6 e1 4e 3b bb 0a 5f bb 24 fa ce 3e 72 a2 21 3d
       0.0031567789 -0.0034033495 0.40425217 0.03946156
000010 12 e4 64 3c db 12 95 3c 49 bb 16 3d 87 38 db 3c
       0.013970392 0.018197468 0.036799703 0.026760353
000020 a6 99 09 bd 12 1e e2 3c 85 f4 85 3b 25 85 8e bc
       -0.033593796 0.02760223 0.004087987 -0.017397473
000030 b8 84 6c bc d3 75 63 3d 1c 59 6f bd 72 0b 55 3c
       -0.0144359395 0.055532288 -0.05843459 0.013003217
000040 4d 65 30 3c f7 b0 0e 3d 80 6e cd 3b 6e b9 9e bd
       0.0107663395 0.034836736 0.006269276 -0.07750212
000050 4b 07 4c 3c 5c 62 8e 3a c0 3e 54 3c 35 5f af bd
       0.012452911 0.0010863054 0.012954414 -0.08563081
000060 4d fe 5a 3c ae af a8 bc 46 6b 59 bb 76 b4 0a 3c
       0.013366294 -0.020591583 -0.0033175512 0.008465877
000070 35 f6 01 bc 66 51 78 3d 9e e2 9b bc 2a 96 96 bc
       -0.0079322355 0.060624503 -0.019028958 -0.01838215

sequential_5/batch_normalization_15/FusedBatchNormV3 f4 [16]
000000 f8 88 a5 bf d4 79 19 c0 13 6d 8a bf d8 61 a3 bf
       -1.2932425 -2.3980608 -1.0814537 -1.2764235
000010 82 b4 67 bf 78 8a 10 bd 1e 4e a6 bf cf d8 dc bf
       -0.9050981 -0.035288304 -1.299259 -1.7253665
000020 1e 8d ec bd 74 ba b9 bf 88 45 ed bd 91 b3 0d be
       -0.115503535 -1.4510026 -0.11585528 -0.1383803
000030 2d 14 02 3d d4 28 e9 3d c4 2d 14 be b1 70 f2 be
       0.031757522 0.113847405 -0.14470583 -0.47351602

sequential_5/batch_normalization_15/FusedBatchNormV31 f4 [16]
000000 27 56 af 41 f9 09 af 41 0b 34 92 41 d3 48 68 41
       21.917067 21.87987 18.275412 14.517779
000010 05 c7 8a 41 17 42 f0 41 6b 65 b2 41 20 3e 7e 41
       17.347178 30.03227 22.29952 15.890167
000020 6d c3 f0 41 25 59 5d 41 9c 4b bb 41 b0 23 bd 41
       30.095423 13.834264 23.411919 23.642426
000030 24 0d e2 41 e2 fe fb 41 0f ec c5 41 ad 04 88 41
       28.256416 31.499454 24.740263 17.002283

sequential_5/batch_normalization_16/FusedBatchNormV3 f4 [32]
000000 b1 9a aa be 35 aa f3 be 09 eb 89 be 66 69 da be
       -0.33321145 -0.47590795 -0.2693713 -0.42658538
000010 bd 3c 90 be 77 f1 7f be 0b de b4 be c3 04 77 be
       -0.2817134 -0.24994455 -0.35325655 -0.2412291
000020 34 9b 9c be a2 84 0d bf 05 e8 ef be 82 93 69 be
       -0.3058716 -0.55280507 -0.46856704 -0.22810176
000030 93 a7 f3 be 93 c4 b5 be 85 d5 a1 be 8b 9a 9b be
       -0.47588786 -0.35501537 -0.31608215 -0.30391344
000040 92 b4 39 be 9c 02 ae be da 60 b8 be 25 1a dc be
       -0.18135288 -0.33986366 -0.36011392 -0.42988697
000050 c7 de 8b be 4b dd b0 be d5 4a f8 be 5c 2c 5a be
       -0.27318403 -0.34543833 -0.48494592 -0.21305984
000060 3a a0 00 bf 3f f5 97 be 4b 42 a5 be 20 63 d8 be
       -0.50244486 -0.29679295 -0.3227714 -0.42263126
000070 fc fb 03 bf 02 bf cd be 02 43 57 be 73 a7 37 bf
       -0.5155637 -0.4018479 -0.21021655 -0.7173988

sequential_5/batch_normalization_16/FusedBatchNormV31 f4 [32]
000000 33 f4 ea 3f e0 39 e9 3f 20 53 69 40 b3 ae 21 40
       1.8355774 1.8220787 3.6456985 2.5262878
000010 f7 83 11 40 8a 0b 97 40 59 fe d5 3f 4c cc 4e 40
       2.2736795 4.7201586 1.6718246 3.2312193
000020 fb bd c3 40 27 fb 40 40 fc ea 2d 40 1f 6a cd 3f
       6.116941 3.0153291 2.7174673 1.604801
000030 18 8f 83 40 cc 6a f2 3f c1 3b 9d 40 44 4e 21 40
       4.1112175 1.8938842 4.913544 2.520402
000040 c5 7b b2 40 8e 33 29 40 62 84 a9 40 cd 1a 17 40
       5.5776086 2.6437716 5.29741 2.3610108
000050 72 9a 0f 40 d5 ab 0f 40 0b 91 38 40 ae 6e 01 40
       2.2438016 2.2448628 2.8838527 2.0223804
000060 9e 26 13 40 25 9f e4 3f 08 14 12 40 75 55 44 40
       2.299232 1.7861067 2.2824726 3.067716
000070 f5 80 74 40 d7 9d c8 40 92 56 fe 3f 64 68 3d 40
       3.820371 6.2692676 1.9870169 2.9594965

sequential_5/batch_normalization_17/FusedBatchNormV3 f4 [32]
000000 bf 62 e2 be 7b f6 ed be 58 9d c7 bf ec 8c 39 be
       -0.44215962 -0.46477112 -1.5594893 -0.18120164
000010 ed 87 1c bf 33 c7 ca be ef 78 7f be 58 4a aa be
       -0.61144906 -0.39605102 -0.24948476 -0.33259845
000020 2c fa 3d be 4c 8f 42 be 86 d4 f0 be be f4 43 be
       -0.18552464 -0.18999976 -0.47037143 -0.1913633
000030 0b 5c f2 be a7 e8 a7 bf 86 75 70 be 5c 5f 37 be
       -0.47335848 -1.3117875 -0.23482332 -0.1790747
000040 f0 42 27 bf f6 b8 8a be bc 2d 9a be 46 19 63 be
       -0.65336514 -0.2709424 -0.30113018 -0.2217761
000050 17 bb 2e be b2 be 60 be 8c db 18 bf 94 15 41 be
       -0.17063557 -0.21947744 -0.5971 -0.18855888
000060 2e 7b 8e be 1e b3 0a be c5 bc 13 be 81 2d 67 be
       -0.27828354 -0.1354489 -0.14427479 -0.22575952
000070 05 11 1e be 25 87 9e be 39 e5 d5 be c3 e1 dc be
       -0.1543618 -0.30962482 -0.41776446 -0.43140993

sequential_5/batch_normalization_17/FusedBatchNormV31 f4 [32]
000000 b3 1f 09 40 40 01 5e 3f 8b 48 2e 40 6a 98 2c 3f
       2.1425598 0.8672066 2.7231777 0.67420065
000010 a0 33 df 3f 44 c1 af 3f 43 49 d0 3e 0a b9 de 3e
       1.743763 1.3730855 0.40680894 0.4350055
000020 2f 30 e7 3e 38 5a 0e 3f ca 61 2e 3f bd 89 02 3f
       0.4515395 0.5560641 0.68117964 0.5099142
000030 d4 b9 65 3f 8c 62 87 3f 04 77 b1 3f 48 85 e7 3e
       0.89736676 1.0576949 1.3864446 0.45218873
000040 34 53 f2 3f c6 9d b8 3e a9 15 03 3f c0 06 ab 3f
       1.8931642 0.36057872 0.51204926 1.3361435
000050 5b 82 db 3e 2a cf f9 3e bf c4 e2 3f e7 7f 32 3f
       0.4287289 0.48790866 1.7716292 0.69726413
000060 f4 c9 b4 3e 8c ca 5e 3f 22 e4 c4 3e ed 9b b2 3e
       0.35310328 0.8702781 0.38455302 0.34884587
000070 b5 ca b3 3e 7a 61 fa 3e b2 1e f0 3f 52 bb 00 40
       0.3511559 0.48902494 1.8759367 2.0114331

sequential_5/conv2d_20/Conv2D f4 [16, 7, 7, 3]
000000 93 a1 4d bc 1f d1 0b 3d cc fd 27 3d 43 e0 a3 bd
       -0.012550729 0.03413498 0.041013524 -0.08001759
000010 50 94 85 3c 79 2c 19 bd 06 de 71 bd 00 d9 ba 3c
       0.016306072 -0.037395928 -0.05904963 0.022808552
000020 08 34 31 3d c5 43 6e 3c 0e a3 d3 3c 9d 5f 8c 3d
       0.04326251 0.014542525 0.025834586 0.06854174
000030 e8 14 71 3d 36 73 18 3c c7 0e b2 bc 39 f2 8e 3d
       0.05885783 0.009304812 -0.021735562 0.06979794
000040 d8 22 e7 bc 0a 20 23 bc 5e 40 f5 3d f4 e0 0b bd
       -0.028214857 -0.009956369 0.11975168 -0.03415008
000050 bf 50 17 bd 53 d6 29 3d d3 3f 87 3d 85 12 82 3d
       -0.03694224 0.04146416 0.066039704 0.063511886
000060 32 d9 a5 bd 4f b0 92 3d 8b dd 97 bd 2d ce 4c bc
       -0.08098067 0.071625344 -0.07415303 -0.012500328
000070 50 8d bf 3c 9f 06 63 3d d7 a7 dd 3b b4 09 2f bd
       0.023382813 0.055426236 0.006764393 -0.042733863
000080 13 6f 37 bd 99 fb 42 bd 5f d9 9b bd 64 67 5d bd
       -0.044783663 -0.047603223 -0.076098196 -0.05405368
000090 a2 6a bc 3d 72 27 1b 3d 34 a5 42 3d 24 ea 92 bd
       0.09200026 0.037879415 0.04752083 -0.07173565
0000a0 82 c5 02 3c 58 21 66 3d 05 e4 12 bd 38 77 cb 3a
       0.00798166 0.056184143 -0.035861988 0.0015523201
0000b0 a8 c6 58 3c 4d 77 39 bd 9d b3 0b bc 66 e4 b0 bc
       0.013230957 -0.04527979 -0.00852671 -0.021593284
0000c0 a7 8a 89 3d 07 34 aa 3c 7d f9 36 3d e6 28 e3 ba
       0.06715899 0.020776762 0.044671524 -0.0017330914
0000d0 ed 36 fc 3c 88 88 5f bb 43 30 ce 3b 3d 04 a6 bd
       0.03078791 -0.0034108479 0.0062923743 -0.08106277
0000e0 a3 db f3 bb b4 d2 c6 3c 1a 4c 2e bd ea 2f c8 bd
       -0.007441954 0.024270393 -0.042553045 -0.09774764
0000f0 df 58 71 3c d8 de af bc b4 84 57 bd cd 08 c9 bc
       0.014730661 -0.021468565 -0.05261679 -0.02454033
000100 36 fe d0 3c d9 ac b1 bc 98 9d f1 bc 76 28 69 3d
       0.025511842 -0.021688865 -0.029494092 0.056923352
000110 2d 41 8f 3d 46 b8 e3 bc 76 f8 d6 3b 9d 02 67 bd
       0.06994853 -0.02779783 0.0065603806 -0.056398977
000120 9c cf 1f bd 99 23 0c 3d 34 6d 0b bc 13 f2 da bc
       -0.03901635 0.034213636 -0.008509923 -0.026726758
000130 7f 9a 96 bc 5d 22 f6 3a 33 05 a0 bd 2c 67 4b bd
       -0.018384216 0.0018778552 -0.07813492 -0.04965894
000140 c0 0e 6c 3d 94 fd d1 3d 0e b6 e5 bc 8f d1 98 3d
       0.057631254 0.10253444 -0.028040912 0.07461845
000150 e4 5a 0c 3d 66 f0 34 3d 0f 4e bf 3d 61 e8 92 bd
       0.034266368 0.044174574 0.0934106 -0.07173229
000160 9b bb ad bc 09 8d c2 3c 32 fc 4d bd 7d c9 6b bd
       -0.021207621 0.023748891 -0.05028934 -0.0575652
000170 d4 17 c4 bd 91 39 43 3d f9 f2 17 ba aa 50 e1 3b
       -0.09574857 0.04766232 -0.00057963986 0.006876071
000180 5b d6 0c 3d c7 18 19 3c a3 6c 36 bb 4f 46 d4 3b
       0.034384113 0.009344286 -0.0027835749 0.006478108
000190 ae 6c e2 bd de 56 34 3d e0 d5 ea 3c 8d 1b d9 3a
       -0.11055885 0.044028156 0.028666437 0.0016563997
0001a0 97 d9 af bd 16 d3 cb bc ff 9e f7 bc f3 64 2b 3d
       -0.08586424 -0.024880927 -0.030227182 0.04184432
0001b0 cc e1 b2 3b 4f 32 07 bc be 62 87 bd 9d 8d b9 bc
       0.005459046 -0.008251741 -0.066106305 -0.022650534
0001c0 32 df 5f 3c 64 11 1b 3d 5b 3f 78 3c 06 46 51 3d
       0.013664054 0.037858382 0.015151824 0.05109217
0001d0 8c e0 a4 3c 18 ef e6 bc cc f1 80 3d 86 0b c1 3d
       0.020126604 -0.02819018 0.06296119 0.09426026
0001e0 3b 97 fe 3c 89 03 b0 3c ca 74 84 3d 21 f1 33 bd
       0.031077972 0.02148606 0.06467588 -0.04393113
0001f0 85 eb a7 bc ee 27 f8 bc 91 2c ae bc d3 b1 b4 bd
       -0.020498047 -0.030292477 -0.021261485 -0.0882298
000200 72 ad 91 3c 9e 7e 7c 3c 45 bc 09 3c ce 8e 7a bc
       0.0177829 0.015411047 0.008406703 -0.015292836
000210 96 42 b6 3c b4 b7 92 bd 09 f8 bc bd 51 e1 b3 3c
       0.022248548 -0.07163945 -0.092269965 0.021958025
000220 d3 42 df 3c a0 d0 95 3c 38 96 8a 3d bf de 52 bd
       0.027253544 0.018287957 0.06766933 -0.05148196
000230 e4 ec 1b bc bd 6e d3 bd 30 0c 90 3d 73 fb 48 3a
       -0.009516928 -0.10323856 0.070335746 0.00076668634
000240 33 45 7d 3c d6 ab 8e bc c7 c9 53 3c c7 af 4b 3d
       0.015458393 -0.017415922 0.012926525 0.04972818
000250 97 ed 2f 3d 00 0b 07 3d 86 dd 5f 3d 56 9f d6 3c
       0.042951193 0.032969475 0.05465462 0.026199024
000260 a9 c7 d5 3b af 5b b9 bc 4c 5a e9 bb 04 9c d3 bd
       0.0065240455 -0.022626726 -0.00712136 -0.10332492
000270 d6 4a 61 bd df bb 17 3d 85 ca 39 3d d8 ae 2e 3d
       -0.05500301 0.037044402 0.045359153 0.042647213
000280 be 25 8f 3d 64 7f 06 3d 6d 55 15 bd 07 ab 4d bc
       0.069896206 0.032836333 -0.03645842 -0.012552983
000290 67 88 0b 3d 7e a8 36 3d c0 e4 39 bd d6 4e 26 39
       0.03406563 0.04459428 -0.04538417 0.00015860362
0002a0 da e6 52 3d 14 73 85 bd 01 43 a7 bd 24 b8 0d bd
       0.05148969 -0.0651609 -0.08167077 -0.03459944
0002b0 ad 92 b3 3c c3 5c 8c bb a6 29 d0 3d 4a 1d 8b bc
       0.021920526 -0.004283519 0.10164194 -0.01698174
0002c0 01 3f 9e bb 25 17 a0 3d ba 30 93 bc a1 87 92 bd
       -0.004829288 0.078169145 -0.01796757 -0.071547754
0002d0 b8 ad 1a bd 0a 18 a2 3c 0e ab d1 bd 44 94 a8 3c
       -0.037763327 0.019786853 -0.10237704 0.020578511
0002e0 9e 62 7f bb f9 45 6e 3c 90 d0 90 3d a7 12 ce bb
       -0.0038968693 0.01454305 0.0707103 -0.0062888446
0002f0 07 eb 54 bd 77 10 35 bd 61 bd 0d 3d bf b3 91 3c
       -0.051981952 -0.044205155 0.034604434 0.017785905
000300 47 24 43 bd d2 f8 60 bd 5f 80 6f 3c 7a 1e ec 3b
       -0.04764202 -0.054924794 0.014618008 0.0072057815
000310 0a 0b 0a bd 1b a3 83 3c 0c 95 b0 3d b9 30 1d 3d
       -0.033701934 0.016068986 0.086221784 0.038376544
000320 1c d4 05 bb 49 30 bd 3c 35 8c 1b 3d 63 03 cd bc
       -0.0020420616 0.023094313 0.03797551 -0.025026029
000330 69 82 ba bd 9c ad 76 bd c5 14 7f bd c0 77 23 3c
       -0.09106905 -0.06022416 -0.062275667 0.009977281
000340 3d 12 7a 3d 21 74 c0 3c 66 27 be 3d 42 0d 12 bd
       0.06105255 0.023492875 0.092848584 -0.035657175
000350 94 4f dc 3c 2e 55 04 bc 1f 11 cf 3c a7 52 a3 bd
       0.026893415 -0.008076949 0.025276719 -0.07974749
000360 48 99 97 bd d0 12 a0 bc 02 9a f6 3a 3c 38 fa bc
       -0.07402283 -0.01954022 0.0018814208 -0.030544393
000370 42 c7 c8 bc c8 5d 8f bc 71 1b 32 3d 27 ca c4 3c
       -0.024509076 -0.017500773 0.0434832 0.024022175
000380 03 b8 1c 3d 64 9e a3 bd 8b b0 0a bd 6a 5c 12 3d
       0.038261425 -0.07989195 -0.03385977 0.035732664
000390 a7 55 2c bd 18 be 46 3c 1b 83 59 bc 1e cf 9e ba
       -0.042073872 0.012130283 -0.013275887 -0.0012116169
0003a0 0c 40 85 3d cc 97 6a bd 05 82 0a bd b8 93 53 3d
       0.065063566 -0.05727367 -0.033815403 0.051654547
0003b0 c3 01 75 3d 1e 65 53 3d 86 7b 91 bd a0 e7 4c 3c
       0.059816133 0.051610105 -0.07103638 0.012506396
0003c0 34 70 6b 3c 21 c1 8d bc 10 a0 df 3c 5e 7b 82 3d
       0.014370013 -0.017304005 0.027298003 0.06371187
0003d0 4e 03 7c 3d c1 7c c8 3d e0 c5 27 bd 92 6a 10 3d
       0.06152659 0.0978942 -0.040960193 0.035257883
0003e0 11 ea c2 bd 66 aa 97 bc 91 bf 12 3d 8a df 2e 3d
       -0.09517301 -0.01851387 0.035827223 0.042693652
0003f0 52 fa 76 bd dc 09 ee bc 2a 9b 8f 3b d8 7f 2e bc
       -0.060297318 -0.029057436 0.0043825107 -0.0106505975

sequential_5/conv2d_21/Conv2D f4 [32, 7, 7, 16]
000000 0c a3 62 bd cf 60 88 bd 78 1b dd bc d8 ab 8a 3a
       -0.055331275 -0.0665909 -0.026990637 0.0010579778
000010 87 c8 22 bd d6 d4 e8 3b 0b 45 61 3d dc 2d 1c bd
       -0.03974202 0.00710545 0.054997485 -0.038129672
000020 70 5f 97 3c 21 c4 41 3d bb ae c9 3c 20 0e 5b 3d
       0.018478125 0.047306184 0.02461945 0.053480268
000030 b8 c0 2f bc ef a8 8c 3d d8 61 1c bd cb a5 af bd
       -0.0107271 0.06868159 -0.03817925 -0.085765444
000040 b6 ce 88 bc 23 7e a3 3c 3e 93 44 bd b6 07 77 bb
       -0.01670013 0.019957608 -0.047991984 -0.0037693805
000050 42 86 bf bb a2 06 84 bb 29 bf eb 3b c5 83 5e bd
       -0.005844862 -0.004029111 0.007194419 -0.054324884
000060 0c f1 bb ba e9 21 38 3d c8 c0 8a bb 95 02 6c bd
       -0.0014338805 0.044954214 -0.004234407 -0.05761965
000070 5f 21 51 bd 59 51 34 bd 6a fc 67 bc 4a 53 f7 3c
       -0.051057216 -0.04402289 -0.014159301 0.030191083
000080 61 e5 75 3c de d1 1b bd 64 c8 6e 3d 6e f7 fb 3c
       0.0150083015 -0.03804194 0.058296576 0.030757632
000090 d9 b0 89 3b fd 2d 87 bb cd 4e 50 bd 57 43 f5 3c
       0.00420199 -0.0041253553 -0.0508564 0.029939337
0000a0 49 c5 67 bc e4 b6 2e 3d b4 d7 09 bc c0 75 56 bc
       -0.014146158 0.042654887 -0.008413244 -0.013089597
0000b0 21 0a cd bc 84 13 03 bd 5e 55 cf 3c 24 ae 82 3c
       -0.025029244 -0.032001033 0.025309261 0.015952177
0000c0 22 8b e5 bb de 91 1e 3c 93 f4 08 3d a9 f3 6d 3c
       -0.0070051113 0.009678332 0.03343637 0.014523425
0000d0 25 6f bf 3c de 83 aa 3b 79 74 8a 3d 2a 3d e9 3c
       0.023368428 0.005203708 0.06760497 0.028471548
0000e0 0d 73 e1 bc 7d 7e 93 3c bd ac 26 bc e3 6c 83 3b
       -0.02752068 0.01800465 -0.01017302 0.004010783
0000f0 ce 0e d0 bc 9c 87 4e 3c 21 ce a3 3c f1 9b 1b bc
       -0.025397684 0.012605574 0.01999575 -0.009497629
000100 76 ee 58 bc b1 97 97 bd a0 dc db bc 78 3a f2 bc
       -0.013240447 -0.0740198 -0.0268386 -0.029568896
000110 2f 45 66 3d da 72 12 bd 08 3f 59 3d 62 91 18 bc
       0.056218322 -0.035754062 0.053038627 -0.009312006
000120 e3 d3 fe 3c f1 1a 91 ba 27 c3 bb 3c ec ee d1 ba
       0.031106895 -0.0011070651 0.022920204 -0.0016016639
000130 52 d5 58 3c 68 69 77 3d 5a 51 a2 3c 71 b7 9a bc
       0.013234453 0.060403258 0.019814182 -0.0188863
000140 03 06 57 bc 2a 47 67 bd b3 8f ef 3a c8 f0 3b bc
       -0.013123992 -0.05646435 0.0018277079 -0.011470981
000150 aa b5 d0 bb fd fc 1b bd b7 6a bb 3b 49 dc 47 3c
       -0.0063693123 -0.038083065 0.0057195085 0.012198516
000160 6c d6 06 3d f4 72 84 bc e8 85 29 3d ab 56 69 bc
       0.032919332 -0.016168095 0.04138747 -0.014241855
000170 d0 aa bd bc d1 ae d6 bc b2 f3 97 bc e8 eb 43 3d
       -0.023152739 -0.026206406 -0.01854882 0.0478324
000180 6b df 05 3d 2c 86 7d 3c 9d 58 a3 3c 5c 14 f0 3c
       0.03268377 0.015473884 0.019939715 0.029306583
000190 d9 88 0b bc 28 31 98 bb 12 f3 0a bd 05 bf b8 3c
       -0.008516514 -0.0046445318 -0.033923216 0.022552023
0001a0 8a 25 c8 3b 8f c8 47 3d 14 11 87 3c 82 df c6 bb
       0.0061079906 0.048775252 0.016487636 -0.0060691247
0001b0 b5 8c 12 bd 32 90 14 3d 05 72 41 bd 6d bd 2e 3d
       -0.03577872 0.036270328 -0.047227878 0.04266112
0001c0 93 10 91 bc cc d7 0c 3c 42 4b 0e bd e4 ba 41 bd
       -0.017708099 0.008596372 -0.03473974 -0.047297373
0001d0 fa 52 55 bd 66 37 89 bc 94 5e 9b 3d 5f cd a9 bb
       -0.052081086 -0.016750049 0.07586399 -0.005181953
0001e0 16 3c 15 3d 10 97 84 bc 75 01 ce 3c a0 db 60 3d
       0.036434256 -0.016185313 0.02514718 0.05489695
0001f0 12 2e bc 3c 8e 82 f2 bc 05 13 86 bc c1 f9 a5 bd
       0.022971187 -0.029603269 -0.016366491 -0.081042774
000200 87 3b 15 bd 6b 67 fe bc b8 6c 20 bd 86 0d 6b 3c
       -0.036433723 -0.031055173 -0.039166182 0.014346486
000210 39 92 83 bc a3 9a e0 bb 35 60 d3 b9 19 44 07 bd
       -0.016060935 -0.0068543716 -0.00040316736 -0.033023927
000220 2d 4c cd 3b 1d 67 3b bb 0a b1 33 3c 07 c5 d1 3c
       0.0062651844 -0.0028595396 0.010967502 0.025606645
000230 ca 2e 5b bb 7a 60 f5 bc 1f 34 63 3b cd 6a c8 bc
       -0.0033444637 -0.02995323 0.0034668518 -0.02446499
000240 1b 7d 60 bd 81 2e 72 3d 6e 91 ed bc 2d 23 2a bc
       -0.05480681 0.05912638 -0.02900001 -0.010384363
000250 49 97 74 bd 2c 84 1c bc cd 0c f5 bc 25 e7 1a 3b
       -0.05971459 -0.009552997 -0.02991333 0.0023636308
000260 4a 34 82 bc e5 42 0e 3d 65 ff e7 3c 39 3b 6f bc
       -0.015894074 0.034731764 0.028320024 -0.014601522
000270 72 14 23 3d 50 88 6c bc 09 80 46 bd 82 fc 44 bc
       0.03981442 -0.014436796 -0.048461948 -0.012023093
000280 7f a5 2f bd d5 20 7f 3d c0 31 30 3d d8 4e 14 bd
       -0.04288244 0.06228717 0.043016195 -0.036208004
000290 e1 cf b7 bb 80 da fb 3c d0 66 2f 3a c7 2e 0d bc
       -0.005609498 0.030743837 0.00066910405 -0.00861711
0002a0 00 68 bb 3c cc a7 2c bd 27 ad 7c 3d 23 80 cf 3c
       0.02287674 -0.04215221 0.06168857 0.025329655
0002b0 4f 4b 02 bd c6 c1 af 3c 9f 86 02 3d 25 36 8d bc
       -0.0318101 0.021454703 0.031866666 -0.017237732
0002c0 e4 92 62 bd 51 b6 31 bc 46 1b b5 3c f0 d5 7c 3c
       -0.055315867 -0.01084669 0.022107732 0.015431866
0002d0 91 8c 15 3d e7 6a 12 bd 72 52 62 bb 6d 81 1f bd
       0.036511008 -0.03574648 -0.0034534005 -0.03894179
0002e0 4c 42 44 bc 07 e6 08 bd 8c cb e4 3b e5 bf 37 bd
       -0.011978697 -0.033422496 0.0069822725 -0.04486074
0002f0 89 1b 0b 3c 38 a2 7d 3c d6 38 3d 3d 43 fa 9c bc
       0.008490452 0.0154805705 0.04619678 -0.019162303
000300 7c da ca 3b dd cb 26 3d 8d e0 a6 3b 26 8e 29 3d
       0.006190596 0.040721763 0.0050926865 0.04139533
000310 4c 21 b3 bc 29 fd 90 bc 26 0a 07 3d e2 cb e3 bc
       -0.021866463 -0.017698841 0.032968663 -0.02780718
000320 6d f7 fa 3c c8 ba 12 3a 9f ab 1b 3c 5e 5b ed bb
       0.03063556 0.00055972906 0.009501367 -0.007243558
000330 fb 1c 81 bc f0 0c 68 3d d5 49 47 bb 08 d8 22 bd
       -0.01576089 0.056652963 -0.0030408998 -0.039756805
000340 22 d0 cd b9 a9 bc 6a bb 31 65 58 bd de 46 28 3d
       -0.00039255718 -0.0035818017 -0.05283088 0.04108321
000350 81 7d 56 bc 49 bd f3 bc 91 0a 74 bc 05 13 12 3d
       -0.013091446 -0.029753344 -0.014895097 0.03566267
000360 81 7a f7 3c e7 a4 73 3c 9c 79 93 3d ae c8 21 bd
       0.030209782 0.014870859 0.072009295 -0.039498024
000370 5f 0e f4 bc be 5f 4a bd e2 cf 06 bd d7 33 e3 3c
       -0.029792009 -0.049407713 -0.032913096 0.02773468
000380 7e bf c7 bc cc c4 87 bc e6 b7 9c bc b1 20 70 3c
       -0.024383303 -0.016573332 -0.019130658 0.014656232
000390 3c 17 e5 3a 92 28 5e 3c b2 81 79 3c c2 8e c7 bb
       0.0017478238 0.013559477 0.015228676 -0.006090016
0003a0 ae 5f bf 3c 23 ee a5 bd b4 cf a8 bb c2 e3 85 bd
       0.023361053 -0.081020616 -0.0051517133 -0.06537582
0003b0 9b 7c 08 3c 2c 25 1a 3d a2 4c a1 bd 28 ae c0 bb
       0.0083304895 0.037633106 -0.07875945 -0.005880136
0003c0 4a 76 bb b9 1b 94 95 3b f3 75 db bc e6 9c eb bb
       -0.00035755552 0.0045647747 -0.026789641 -0.0071903346
0003d0 a9 16 23 bd a6 b0 b7 bc ad 76 a1 3b 59 d7 b1 3c
       -0.039816532 -0.0224231 0.0049274773 0.021709131
0003e0 0f 37 d5 3b 15 4e 00 bd 22 95 aa ba 5a c5 0a bc
       0.0065068076 -0.031324465 -0.0013014416 -0.008469904
0003f0 48 48 94 bc 2d 7b 24 3d 69 a6 06 bc 81 53 89 3d
       -0.018100873 0.040156532 -0.008218386 0.0670538

sequential_5/conv2d_22/Conv2D f4 [32, 7, 7, 32]
000000 af d1 d4 3b 62 34 8e 3d d4 db 61 bd 44 12 9e 3d
       0.006494723 0.06943585 -0.055141285 0.07718328
000010 7a 2e 82 3c fa 38 b4 bb 24 91 3a bc 90 6e 33 3d
       0.015891302 -0.005499956 -0.011387143 0.043806612
000020 82 57 38 3b 60 1e a4 bd de 10 4b 3d 62 6c 2e bb
       0.002812833 -0.08013606 0.049576633 -0.0026614894
000030 89 92 8a bd 0e 7b 9f bb ef 31 ff bc fe 0c 5e 3d
       -0.067662306 -0.004866964 -0.03115174 0.05421161
000040 ae d3 5d bc 71 ed af bc 21 04 73 3c a6 64 a6 3c
       -0.013539238 -0.021475526 0.014832527 0.020311665
000050 2c bc 19 3b 69 1b f7 bc 72 32 9a 3d 14 76 a1 bc
       0.0023458106 -0.030164437 0.07529153 -0.019709624
000060 5e 0f 92 3c 8a 2d 51 bb 2a f8 8a 3c bc 03 a3 bc
       0.017829593 -0.0031918013 0.016964037 -0.019899242
000070 2d 43 17 bd e5 62 bc bb 62 76 4d 3c 70 9c 80 3c
       -0.0369293 -0.005749094 0.012540432 0.015699595
000080 7b 1c 9e bc ee c7 50 3c d2 33 c9 3c 82 70 b9 3b
       -0.01930069 0.012742979 0.024560843 0.005659164
000090 22 18 6f 3c d8 6e b5 bb 5f b3 17 bc 81 fa 10 3d
       0.014593156 -0.0055368952 -0.009259074 0.03539515
0000a0 3b 3d f9 bc ed 70 0f 3d 8a b5 95 3c 4a c1 15 3d
       -0.030424705 0.035019804 0.018275041 0.036561288
0000b0 04 8d 83 3c 54 ca 85 3b af 91 16 3d 06 17 1b bb
       0.016058452 0.0040829573 0.03676003 -0.0023664846
0000c0 2b 08 8e 3c 27 b1 3f bc 12 47 25 bd 84 01 88 3b
       0.01733788 -0.011699951 -0.04035098 0.0041505713
0000d0 80 85 cc bb 8e 38 ea bb b4 62 2e bc 0e 74 a7 3c
       -0.0062415004 -0.007147855 -0.01064365 0.020441081
0000e0 8f be f3 38 2f d7 50 3b 75 fa 18 bc 60 e4 a5 bc
       0.00011622637 0.003186654 -0.009337057 -0.0202505
0000f0 e1 2e df b9 d5 fe ff 3c f5 52 d8 bb ef 79 d7 3c
       -0.00042568802 0.031249443 -0.006601686 0.02630326
000100 30 3e 21 bb d8 f1 93 3c fa 9f c3 bc e6 40 b3 3b
       -0.0024603717 0.018059656 -0.023879994 0.005470383
000110 f0 70 d4 3c 88 23 65 3c c6 54 c4 ba db 03 40 3c
       0.025932759 0.013985522 -0.0014978878 0.011719669
000120 74 9a b5 bc 71 30 80 bc 20 ed b4 3c e4 1c 06 3d
       -0.022168376 -0.015648099 0.022085726 0.032742396
000130 3e af 9d bc 65 65 45 bb e9 7d 68 3a 94 c8 82 3c
       -0.019248601 -0.003012025 0.000886886 0.015964784
000140 54 98 71 b9 ec 03 83 ba 8a b9 72 3d 8a 4f 50 bd
       -0.00023040298 -0.0009995676 0.059258975 -0.050857104
000150 c2 ff 9b bb eb c2 82 3c c6 cd c4 3c cd 4b 2f bc
       -0.0047607133 0.015962085 0.024023902 -0.010699225
000160 e8 0f 5b 3c 40 70 83 3d 6a 06 bd 3b 90 15 28 3d
       0.013370492 0.06417894 0.005768587 0.04103619
000170 df 59 5b b9 67 0b 9e ba 13 5a 65 3c ba 8c c1 3c
       -0.00020918947 -0.0012057842 0.013998526 0.023626674
000180 03 35 df bc b7 4c a1 bc 70 fe 39 bb 70 1f 4e 3d
       -0.027246958 -0.0196899 -0.0028380416 0.05032295
000190 2b f2 fc bb 3c 34 08 bd 38 48 6c bc 37 21 01 3d
       -0.0077192984 -0.03325294 -0.014421515 0.031525817
0001a0 80 3b 67 3c 9d dd eb 3b 6e 69 da 38 50 97 b4 bb
       0.014113307 0.007198049 0.00010414688 -0.005511202
0001b0 7f cb b5 bb 1c a0 d2 3c 55 bf 2d 3c 86 3d 0a 3c
       -0.0055479403 0.025711112 0.010604699 0.00843752
0001c0 5b 49 c0 39 9f ac c5 3c ac 46 8c 3a 3e 62 8e 3c
       0.00036675748 0.024130164 0.0010702214 0.01738083
0001d0 6c 20 1a bc c8 d1 ee bc e7 fa 0f bd e5 b2 10 bc
       -0.009407144 -0.029152766 -0.03515139 -0.008831714
0001e0 b8 78 32 bb 34 c8 96 bc 80 ec 07 3d be c6 2a 3a
       -0.0027232599 -0.018406011 0.03318453 0.00065146
0001f0 06 29 57 bc 15 cc d4 3c 05 0a 20 3c cc d1 17 3d
       -0.013132339 0.02597622 0.009768014 0.037065312
000200 00 2a 0d 3d dc 67 39 bc 4b 6b ab 3c f4 8c 25 bc
       0.034463882 -0.011316266 0.020925185 -0.010104407
000210 8f 12 9a b6 da da 05 3d 5f 11 56 ba 41 6b 42 3d
       -4.591718e-06 0.032679416 -0.00081660406 0.047465567
000220 22 60 68 bc c0 49 a5 bc 39 14 17 ba 6b 1d d8 bb
       -0.014183076 -0.020176768 -0.0005763206 -0.006595304
000230 54 22 2d 3c a6 bf d1 3c 81 c6 81 bc 1c 55 73 bc
       0.0105672665 0.02560408 -0.015841724 -0.014851835
000240 c4 f5 19 3d 58 7a 6c 3c ba c1 e3 3c 36 24 ca 3c
       0.037587896 0.014433466 0.027802337 0.02467547
000250 04 8e 7b 3c 0e b2 f8 39 80 69 61 bc 07 c5 27 3d
       0.015353683 0.00047434907 -0.013758063 0.040959384
000260 63 43 05 bc 04 ea c9 3c 3a 85 5b bb 97 a7 7e 3c
       -0.008133742 0.02464772 -0.0033496157 0.015542886
000270 28 0c 0e 3d 2a 27 06 3d c2 07 8b bc 63 05 a2 bc
       0.03467956 0.032752194 -0.016971473 -0.01977796
000280 b9 3b 9a ba 45 6c 59 bc d2 53 66 bc ab 3c a9 ba
       -0.0011767066 -0.013270442 -0.01405807 -0.0012911757
000290 ea 0b 11 3c b9 a5 8b 3b c9 51 0e 3c 2a 10 84 3c
       0.008852938 0.004261699 0.008686491 0.016120989
0002a0 4b d7 0e 3d d4 c1 de 3a a6 e2 2f bd e3 b6 22 bc
       0.034873288 0.0016995021 -0.04294076 -0.009931299
0002b0 6d 6e 0d bb 95 40 c6 bc 3b 20 05 3d 8b 2c 1a 3c
       -0.0021580711 -0.024200717 0.03250144 0.009410034
0002c0 be 33 d1 bb cf 6d e7 3c 28 99 26 3d 92 84 5f 3b
       -0.006384342 0.028250603 0.040673405 0.0034106118
0002d0 3d f7 e8 3c da 1f 22 bb 59 5e 4e 3c 27 64 78 bc
       0.028438205 -0.0024738223 0.012595736 -0.015160597
0002e0 e8 8b 21 bb b8 e4 48 3d a8 3a 8b 3c 8f fa 29 3c
       -0.002465004 0.04904625 0.016995743 0.010374679
0002f0 1a 5e 9f 3c 87 9f a5 3b a2 ba 4c 3a 17 bc bf 3c
       0.01945405 0.0050544175 0.0007809793 0.023405118
000300 07 ac 10 bc 5a a6 15 3c 9f 22 21 bd db 35 14 bd
       -0.008830077 0.0091339 -0.039339658 -0.036184173
000310 29 40 1e 3d e2 e7 a1 3c 8a 73 ca bc 3a 16 f9 bc
       0.038635407 0.01976389 -0.024713296 -0.030406106
000320 2f f8 52 3c 5a 2b 8e 3b d1 a4 f2 bb 74 ac 5d bd
       0.012876554 0.004338664 -0.0074049016 -0.054119542
000330 2f 39 7a 3c f6 07 1c bc 24 79 c4 3c dc 7c 75 bc
       0.015272423 -0.009523382 0.023983546 -0.014983382
000340 7d 2d 3d bb a1 a6 56 bc 37 70 c8 3c c5 f8 68 bc
       -0.0028866224 -0.013101251 0.02446757 -0.0142194675
000350 18 a7 1b 3d 1f 3c 5a 3c 98 75 23 3d bc 7f 00 3d
       0.03800115 0.013319998 0.039907068 0.031371817
000360 40 7e 38 bb a4 7b 5e bd f2 7f a4 bc ed d4 5d 3c
       -0.0028151423 -0.05431713 -0.02008054 0.013539535
000370 a2 dc f6 3c 2c c5 36 bc 41 a1 a9 bc 59 a0 90 bc
       0.030134503 -0.011155408 -0.020706775 -0.017654585
000380 b1 ed fe 3c da bd 8d bc 8a 0f d9 bc 90 13 8d 3d
       0.0311192 -0.017302442 -0.026496667 0.06888497
000390 cb 64 fc bc bb 17 06 3c 42 84 bd bc cb 71 46 3d
       -0.03080978 0.008184369 -0.023134355 0.048448365
0003a0 7a 53 4c bc a3 93 be bc 72 d0 ce 3c 65 21 94 3b
       -0.012471074 -0.023263758 0.025245879 0.0045205825
0003b0 bb f4 1e bc f1 eb 51 3d 5f f2 3b bd 0d 25 02 3d
       -0.009701903 0.051250402 -0.04588544 0.031773616
0003c0 b0 5d 3e bc b6 14 20 ba 47 4b d0 bc ba 63 a3 3c
       -0.0116190165 -0.0006106602 -0.02542652 0.019945014
0003d0 8e 9b ac 3b 1b 9e 14 bd db c3 9e 3c b3 56 a4 bb
       0.005267567 -0.036283594 0.0193805 -0.005015218
0003e0 8b 02 87 3d 72 3d 1f ba 7d 74 e5 bc 47 5c a4 3c
       0.06592282 -0.0006074525 -0.028009648 0.020063533
0003f0 99 95 ab 3c 19 93 1b bd 8d 3d f6 3c 4e 8d 10 3d
       0.020945357 -0.03798208 0.030058647 0.03529101

sequential_5/conv2d_23/Conv2D f4 [1, 7, 7, 32]
000000 6b f2 ad 3d df 58 96 3c 94 85 bc bc 3a 2e 0d bd
       0.08493503 0.018352924 -0.023012914 -0.034467913
000010 09 9c 88 3d 25 2e ba 3c d3 f0 a7 3c d5 00 70 bc
       0.06670386 0.022727082 0.020500576 -0.014648636
000020 e9 f9 14 bd 1a 80 2e bd 3f 16 8f bd 73 25 82 3d
       -0.036371145 -0.042602636 -0.06986665 0.06354799
000030 27 b3 e4 bc b0 dd 97 3c cc 7e b5 ba 30 ad 17 3a
       -0.027917458 0.018538326 -0.0013846993 0.0005786
000040 c3 c0 49 3c 0a 4c 80 bc 7c 0b 2c bd ba 46 1b bd
       0.012314024 -0.015661258 -0.04200314 -0.037909247
000050 a6 3a 05 bd 61 de 25 3d a8 be 86 3d ba c0 9b 3c
       -0.032526635 0.04049528 0.065793335 0.019012798
000060 5c c4 ee bc 8c 20 a8 bd 8f 7c 42 3d c8 f5 80 3d
       -0.029146366 -0.08209333 0.04748207 0.06296879
000070 50 15 98 bd a0 24 17 bc 50 f8 19 bd d7 9b b9 bd
       -0.0742594 -0.009225041 -0.037590325 -0.09062927
000080 05 34 98 bd ac 5a 98 3c b7 f0 b5 bc 81 88 a6 3b
       -0.07431797 0.018597923 -0.022209508 0.0050821905
000090 91 35 2e bd 68 3a 9e bb 84 66 25 3c de 6b 82 3d
       -0.042531554 -0.00482874 0.010095242 0.0636823
0000a0 66 9b b2 bc 19 3c a3 bd 6c b8 39 ba 41 cd 09 3d
       -0.021802615 -0.07970447 -0.0007084671 0.03364301
0000b0 5c 8a 18 bd a2 df 00 3d a0 4c 51 bc 71 6d 97 3b
       -0.037241325 0.031463273 -0.0127746165 0.0046212007
0000c0 67 38 b5 bc 10 13 b8 3b 77 6d 20 3d b4 d6 23 bd
       -0.022121621 0.005617507 0.039166894 -0.03999968
0000d0 8c 56 41 bb 06 93 23 bd f1 63 66 3d 82 d4 5f bd
       -0.002950105 -0.039935134 0.056247655 -0.054646023
0000e0 63 86 93 3c 0f 24 c1 3c 8e 56 ab 3c 0e 54 c3 bc
       0.018008417 0.023576764 0.020915296 -0.023843791
0000f0 b0 66 5c bc ef 1d 2c 3d 42 59 87 bd 93 d2 ae ba
       -0.013452217 0.042020734 -0.066088215 -0.0013337902
000100 e5 48 3c bd 2b b8 8c bb 51 20 66 bb 8e 5f cc bb
       -0.045967955 -0.0042944155 -0.0035114477 -0.006236977
000110 e3 d5 57 3d 81 77 ec bc d6 bd 02 bc ae 86 8f bd
       0.052694213 -0.028865578 -0.007979831 -0.0700811
000120 00 8f 96 3b 46 36 60 bc 6e ea 1b bd ed 78 88 bd
       0.0045946836 -0.013684815 -0.038065366 -0.0666369
000130 fe 20 8c bc 68 17 e0 3c 0a 6b 0b bd a4 1e cd bb
       -0.017105576 0.027354911 -0.034037627 -0.006259756
000140 ad 72 9e 3c ed 9e dc bb 48 ca f6 3b 7a b9 2e bc
       0.019341791 -0.0067328126 0.007531438 -0.010664338
000150 6e 1d a3 bb c5 1c 1f 3d 78 b8 dc 3c bd 51 69 bc
       -0.0049778735 0.038845796 0.02694343 -0.014240679
000160 a4 51 a9 bb f6 b8 e9 bc 21 b9 56 3d 6c 7a a4 bc
       -0.005167203 -0.028530579 0.052422646 -0.020077907
000170 5b 1a 3f bd cb ad 56 3c c9 db 88 bc 8c 22 6f bd
       -0.046655994 0.013102959 -0.016706364 -0.058382556
000180 44 53 23 3b 9b 41 3b 3d 3e f3 b3 3b 39 28 40 bd
       0.0024921456 0.045716863 0.005491643 -0.04691336
000190 a9 7e 78 bc 3b 23 96 3d 4b f1 dc 3c 9c 6f 7e 3c
       -0.015166917 0.073309384 0.026970526 0.015529539
0001a0 ff 62 dd 3b 08 81 14 bd 35 bd 36 bd fe de a6 bc
       0.006756186 -0.036255866 -0.044614036 -0.020370003
0001b0 86 6d 47 ba af 5a 1a 3c e7 f9 1e bc ac fa 29 bd
       -0.0007607568 0.009421035 -0.009703136 -0.041498825
0001c0 2b ef 59 3a b3 2b 90 3c 02 49 95 3c a1 1f d6 bc
       0.0008313532 0.017598962 0.01822329 -0.026138129
0001d0 b9 0a 87 bc 3f 67 4e 3c c5 53 c0 bc 40 11 35 bd
       -0.016484605 0.012597858 -0.023477444 -0.044205904
0001e0 da 5d 83 3c b4 f5 a1 3c 4b fc 14 3c a8 df 16 bd
       0.016035963 0.01977048 0.009093354 -0.03683439
0001f0 fe d3 39 3c 76 1a 8b 3d f1 f1 f8 bc d4 20 11 bd
       0.011342047 0.067921564 -0.030388804 -0.035431698
000200 0b 2a 57 3c ee 40 c3 bc da fb bf 3b 56 f7 93 bb
       0.013132582 -0.023834672 0.0058588805 -0.0045155687
000210 87 28 8e 3d 50 1c 69 bc 4c 8b 48 3d 3f 2a f4 bc
       0.06941324 -0.014227942 0.04896097 -0.0298053
000220 9e 24 0d 3c 50 52 47 bc 9a e6 2a 3d 59 97 d2 3c
       0.008614687 -0.012165621 0.041723825 0.025706934
000230 ef c8 46 3d ab 52 f4 bc 69 42 50 bd ed c3 ee bc
       0.04853147 -0.029824575 -0.050844584 -0.029146159
000240 a8 91 69 3c fe ca d5 bc 2d e7 e6 ba 88 39 37 3d
       0.014255919 -0.02609777 -0.0017616503 0.0447326
000250 c3 13 2e bd 1a 3b 48 3d fb f2 e5 3c 52 f0 49 bc
       -0.042499315 0.04888449 0.028069964 -0.012325363
000260 2f 43 06 3d 30 40 b7 3c 91 e0 4c bc 0c df 6b 3d
       0.032778915 0.022369474 -0.012504713 0.05758576
000270 59 46 7a bd 0e 4a 10 bb a0 1a d8 bc a7 a9 ae 3c
       -0.061102245 -0.0022016796 -0.026379883 0.02132113
000280 5e 3c ce bb 40 bb 33 bc ad 7f 92 bc a7 2d c4 3c
       -0.0062938174 -0.010969937 -0.017883146 0.02394755
000290 b5 12 89 bc 6c 26 69 bc 77 5d c3 3c 68 c7 ae bb
       -0.016732553 -0.014230352 0.023848278 -0.0053338297
0002a0 7c 41 a1 bc 40 3f 1d bd c2 66 0c bd ff 86 4c bb
       -0.019684546 -0.038390398 -0.034277685 -0.0031208394
0002b0 84 52 48 bd d1 9c 4f 3c f4 21 1d 3d 67 d7 d0 3c
       -0.048906818 0.012671665 0.03836246 0.025493337
0002c0 58 ba f8 3c 99 c1 78 3c 37 9a 12 3d bd 6a de bc
       0.030362293 0.015182876 0.035791602 -0.027150506
0002d0 25 ce 46 bd 48 67 c3 3c 5a d9 59 3d ab 3d 89 bb
       -0.04853644 0.02385296 0.0531858 -0.0041882596
0002e0 bf 0e de 3b 46 d2 58 3c 56 6a 02 3c 19 57 29 3d
       0.00677666 0.013233727 0.007959923 0.04134283
0002f0 3b 2e 7f ba 4b 0d e1 3b c0 1e af 3b 9d 3f 09 bd
       -0.0009734367 0.0068680397 0.005344242 -0.033507932
000300 47 64 e1 3c 17 31 37 3d 92 a4 12 3d 8c d7 f8 3b
       0.027513636 0.04472455 0.035801478 0.0075940546
000310 75 ef 24 3d 35 1a 21 bc df 49 79 3c b7 87 67 3d
       0.040267427 -0.009832908 0.015215366 0.056525912
000320 f5 54 fa bb 4d a6 57 3d a4 10 85 bc 08 0c 86 3d
       -0.007639522 0.05264883 -0.016243286 0.065452635
000330 73 12 40 3d 63 4b 4d 3c 24 03 72 bd b4 16 1d bd
       0.046892595 0.012530181 -0.059085026 -0.03835173
000340 16 29 31 3d 19 f6 21 3d 15 21 38 3d fd 9b 15 3d
       0.043252073 0.039541338 0.044953424 0.036525715
000350 e8 a5 d6 3c bf 1a d8 ba d1 d2 13 3c 41 c1 79 bd
       0.026202157 -0.0016487463 0.0090224305 -0.060975317
000360 c1 d3 f7 3c e4 f9 25 bb 84 c6 24 bc 85 be d7 3c
       0.03025234 -0.0025325948 -0.010057095 0.026335964
000370 e4 0e 08 3d ee 43 02 bd 51 30 22 39 8b 44 da bc
       0.033217326 -0.031803064 0.00015467523 -0.026644012
000380 d9 6a 16 bd 3a 93 70 bc bd f2 5c bc 58 15 86 bd
       -0.03672299 -0.014683539 -0.013485608 -0.0654704
000390 7d 69 88 3c 89 72 84 3d 78 b8 8a 3d ae d1 00 bd
       0.016651863 0.06467158 0.06773466 -0.031449966
0003a0 09 08 c3 bb 5a 7b ce bc de 9c ae bc 2e 85 3c bd
       -0.0059518856 -0.025205303 -0.021315034 -0.046025448
0003b0 fd b7 b6 bc 9a a2 39 bd 0c 30 b7 bc 76 c7 95 bc
       -0.02230453 -0.045321085 -0.022361778 -0.018283587
0003c0 04 65 1b 3d 4b fd b0 3c 6a 36 22 bb 89 80 6e ba
       0.037938133 0.021605154 -0.0024751672 -0.0009098133
0003d0 0e f5 f7 3c ff 51 2e 3d a1 e3 c9 3c b7 f7 9a bd
       0.030268218 0.042558666 0.024644675 -0.07566779
0003e0 e0 58 42 bd 20 f4 e5 bc 65 1f 91 bc 6a 71 4c 3c
       -0.04744804 -0.02807051 -0.017715165 0.012478212
0003f0 ec b9 79 3c f0 3e 10 3d f1 e3 5a bb 3a c1 19 bd
       0.015242081 0.035216272 -0.0033400024 -0.03753779
