demo/model.tflite (tflite, 322168 bytes, 13 tensors)

sequential_4/conv2d_16/BiasAdd/ReadVariableOp/resource f4 [16]
00000000: 441a 653c 5909 f6bb e5e2 953d fa69 6cbc
00000010: 42e3 8e3a 63df f93c cd89 243c 5b5a 033d
00000020: eda2 0e3d 09ac 433c c981 a2bb 1976 be3c
00000030: eec8 38bd cdb9 ca3c 38e8 15b7 1814 3a3d
0.013983313 -0.0075084385 0.07318667 -0.014429564 0.0010901468 0.030502027 0.01004262 0.03206859
0.034823347 0.011942872 -0.0049593193 0.023249673 -0.045113496 0.0247468 -8.93516e-06 0.04542932

sequential_4/conv2d_17/BiasAdd/ReadVariableOp/resource f4 [32]
00000000: 333a f6bc 9a47 29bd 0eb8 1f3c 77cc cbbc
00000010: 23ae 1cbd d5cb 13bb 1411 bfbc df7f 6dbc
00000020: 97df febc 9c1a 22bd 509d 5cbd e0c8 42bd
00000030: 89c3 cfbc ad11 b9bc 7e9e aebc 6040 12bc
00000040: 2d53 b5bc 9e71 ca3c 3119 113c 46d6 9ebc
00000050: a52a 0dbd aa40 55bd f249 43bd 0e81 06bd
00000060: 434a dbbc df1f c3bc 4fe6 a3bc 53dc 6c3b
00000070: bfbe c5bc be8a 9cbd c062 16bd 0b22 253b
-0.030057048 -0.04132805 0.009748472 -0.02487777 -0.038252007 -0.0022551913 -0.023323573 -0.014495819
-0.031112475 -0.039576158 -0.053860962 -0.04755485 -0.025361793 -0.022591436 -0.02131581 -0.008926481
-0.022134388 0.02471238 0.008856104 -0.019389283 -0.034464497 -0.05206362 -0.04767794 -0.03283792
-0.02676881 -0.023818908 -0.02000728 0.0036142066 -0.024138806 -0.076436505 -0.03671527 0.0025197293

sequential_4/conv2d_18/BiasAdd/ReadVariableOp/resource f4 [32]
00000000: 76b4 34ba e2b5 9dbc f9e9 3abd 5d76 17bb
00000010: 1041 8c3c 2500 81bb 595c c23d c668 8d3a
00000020: 07c5 e9bc 86f8 48bd 2d8c 8c3b 2b88 473d
00000030: ecb8 c8bb fcba 393c 96d9 90bc d03f 703b
00000040: a4e5 b6bc 13e1 1dbc edaf 36bc f2f5 053c
00000050: f2d0 5a3d 2e01 c63c 558a fdbc 969b 953b
00000060: 4628 bf3d 388b d73c 2d6f 3bbc a94a f9bc
00000070: 76a2 073c cd7a a53c f037 433c ea96 463c
-0.0006893346 -0.019251768 -0.04563329 -0.0023111321 0.017120868 -0.003936785 0.0949027 0.0010788671
-0.028536333 -0.049065135 0.004289171 0.048713844 -0.00612556 0.011336084 -0.017681878 0.003665913
-0.022326298 -0.009636181 -0.011150342 0.008176314 0.053421922 0.024170484 -0.03094975 0.0045656664
0.093338534 0.026311502 -0.011440081 -0.030431109 0.00827848 0.020200158 0.011915192 0.012120942

sequential_4/batch_normalization_12/FusedBatchNormV3 f4 [16]
00000000: 2788 81bf 4f79 81be 33cb 7ebf 5ab4 b9bf
00000010: 68ae d9be 4123 afbd c253 a9be e39e d1bf
00000020: e625 1bbe ac20 95bd 5f81 82c0 c443 cdbf
00000030: e72f 10c0 4579 1dbe daa2 2ebe 8e99 3bc0
-1.0119675 -0.25287864 -0.9952881 -1.4508164 -0.42515874 -0.08551646 -0.33071715 -1.6376613
-0.15151176 -0.07281622 -4.0782924 -1.6036305 -2.2529237 -0.15378292 -0.1705431 -2.9312472

sequential_4/batch_normalization_12/FusedBatchNormV31 f4 [16]
00000000: 20ca ae41 64b4 d241 12bb 9c41 5e7b 8c41
00000010: f923 9341 8a05 b141 c0e2 a041 412f 6f41
00000020: 6369 a341 6586 f541 1fa6 2041 09c0 9841
00000030: b984 5641 8eab 9741 f2f4 c741 e6c0 b841
21.848694 26.338081 19.591343 17.560238 18.392565 22.127705 20.110718 14.949037
20.426458 30.690622 10.040557 19.093767 13.407403 18.958767 24.994602 23.094189

sequential_4/batch_normalization_13/FusedBatchNormV3 f4 [32]
00000000: 9af3 c2be 5539 80be 4864 0dbf e5ed 36be
00000010: 6f87 48be b524 c1be 6eb8 b9be a253 aebe
00000020: 97f1 8dbe 2725 09bf 641b 98be f122 b4be
00000030: f597 53be e6b9 45be d9c9 ccbe 4a0c c4be
00000040: 0090 80be 778f 85bf a6bb cdbe 7b30 bfbe
00000050: 9fde 9cbe 9951 b0be 3877 aebe 4c24 9abe
00000060: 1649 97be 02e9 a7be 7b52 89be 93f1 68be
00000070: 6311 b4be eeaf b6be f70b 5ebe ac5e d6be
-0.38076478 -0.2504374 -0.5523114 -0.17864187 -0.19582914 -0.37723318 -0.3627352 -0.34048182
-0.2772338 -0.53572315 -0.29708397 -0.35182908 -0.20663436 -0.19309196 -0.39997748 -0.38290626
-0.25109863 -1.0434407 -0.40182227 -0.37341675 -0.30638596 -0.34437254 -0.34075332 -0.30105817
-0.29547948 -0.32794958 -0.2682074 -0.22748403 -0.35169515 -0.356811 -0.21684252 -0.41869104

sequential_4/batch_normalization_13/FusedBatchNormV31 f4 [32]
00000000: 828c 4940 4ffb 7740 3197 a73f f754 2640
00000010: 3ffc 4240 fe37 d03f d15f e43f f2ea aa3f
00000020: 80e3 2740 bbf9 4540 955e bf40 daf1 f33f
00000030: cc30 6240 abe5 823f 6670 ac3f 8253 ce3f
00000040: e858 993f 073f 893f f53a 9f3f ef64 0740
00000050: 7d78 1340 df87 4240 6584 af40 1162 1640
00000060: 8ba1 f43f bc40 c13f 3668 1840 c6a2 b23f
00000070: 009f 0740 40f1 9640 5c97 5540 6696 a53f
3.149201 3.8747137 1.3093015 2.5989358 3.0466459 1.6267087 1.7841741 1.335295
2.6232605 3.0933673 5.9802957 1.9058182 3.5342283 1.0226339 1.3471801 1.6119235
1.1980257 1.072236 1.2439867 2.1155355 2.304229 3.039543 5.4849114 2.3497355
1.9111799 1.509788 2.3813605 1.3955925 2.1190796 4.7169495 3.3373632 1.2936523

sequential_4/batch_normalization_14/FusedBatchNormV3 f4 [32]
00000000: ca6b 4cbe 05d7 81be f8c6 babe a673 6abe
00000010: f465 a0be 109a 6abe 11c7 81bf 0d64 07bf
00000020: 3938 44be d4e0 2dbe 2a49 48be a9dd 45bf
00000030: a251 65be 9759 37bf d506 4abe f633 e4be
00000040: 701c 63be 64f2 52be 7963 02bf 1cf7 7abe
00000050: 6a4e 5bbf c25c 28be fe19 44be 2f81 22bf
00000060: 7448 2cbf 89b0 94be c271 68be a46c 5cbe
00000070: 7832 b0be 2c29 f3be 0fb0 38be 0b86 61be
-0.19962993 -0.2535936 -0.36479926 -0.22895679 -0.31327784 -0.22910333 -1.0138875 -0.5288704
-0.19162072 -0.16980296 -0.1955916 -0.7729135 -0.22394422 -0.7162108 -0.19729169 -0.44570893
-0.22178817 -0.20600277 -0.50933033 -0.24508327 -0.85666525 -0.16441634 -0.1915054 -0.6347837
-0.67298055 -0.29040936 -0.22699645 -0.21525818 -0.34413505 -0.4749235 -0.18035911 -0.2202379

sequential_4/batch_normalization_14/FusedBatchNormV31 f4 [32]
00000000: 597a ad3e 7b62 f23e d708 4440 6d18 d83e
00000010: 2ecf dd3e cd8b 543f 8060 313f c4b9 0c40
00000020: b776 d43e a0cd 383f ea61 163f 438b f53f
00000030: 7eac d23e 3351 af3f 369c 883e 8dce 543f
00000040: 51c0 d23e ae22 c33e ea15 6a3f 4b0c f33e
00000050: 9442 843f 1675 da3e e801 a33e 9067 0040
00000060: 6bd8 e83f a0d4 da3e e9b7 c83e 7e80 273f
00000070: e8ab 493f adb9 9f3f 61f9 103f 25d1 8d3e
0.33882406 0.4734076 3.0630395 0.42206135 0.43322128 0.8302582 0.6928787 2.1988382
0.41496822 0.7218876 0.58743155 1.9183124 0.41147226 1.3696655 0.2668168 0.8312767
0.4116235 0.38112396 0.9143969 0.47470316 1.0332818 0.42667454 0.31837392 2.006321
1.8191046 0.42740345 0.39202812 0.6543044 0.78777933 1.2478539 0.5663052 0.27698627

sequential_4/conv2d_16/Conv2D f4 [16, 7, 7, 3]
00000000: 4f73 b73c dbf6 193c ffd4 933d 110f 043d
00000010: a05e 4f3d 78d3 08bc 8ea9 10bd b9a3 d1b9
00000020: 45cc 793d 930d 083d 8d31 b9bd da58 a2bd
00000030: 6898 c03d 576f d7bc 61e6 5fbd a263 913c
00000040: 99f6 c53c 0df2 bbbc de53 bd3d 7ee2 afbd
00000050: dcb1 bdbc b985 89bb cc60 7e3d 9765 023d
00000060: f0fb 92bd 56c4 21bc d328 26bd fcfa cf3d
00000070: 4fdc 19bd 270b 02bd 3470 4d3d 9b0e 143d
00000080: 1b9a 1d3d dee6 853c 490c 10bd bdb8 ac3d
00000090: 5770 913d d9bb 9cbc d629 8dbb f4d4 103d
000000a0: 4a4e 6cbd 5f32 9ebd 8ba1 e8bd 4ac7 853c
000000b0: 14f7 5f3d 39c6 e83c 59e2 11bd 50f9 823c
000000c0: 8f70 063d ae94 293b bf56 9cbb 155a 003d
000000d0: 029a b5bc 831e 4a3c 8b0f 843c c8fa 6cbc
000000e0: 8a77 3abc 06b2 943d d751 49bd 2d2b 8fbd
000000f0: 4635 d23c e6a4 06bc 2a94 3a3c b9c9 8dbc
00000100: 4051 e73c 3d6d 58b9 5d8f 69bb 5147 56bc
00000110: 5d51 27bd 6bb7 0bbd c887 223d 36f1 bcbd
00000120: 0f14 54bd f00f 01bd ca67 393c 2726 1a3d
00000130: 464f 13bd ee7a 0dbd f885 b0bc 743d c33c
00000140: 1ea6 cb3c 3e2f 4a3c 410d 35bd 31f9 64bc
00000150: 680d 813d cb30 6a3c 8aba 93bc 2131 b73b
00000160: 052a 5cbd 36af 1fbd 9c3b 9a3d 1847 993c
00000170: 7de9 753d fb94 fdbc 888c f13b a0fd 713c
00000180: ebf4 063c 5b66 3d3d 9c27 2cbd ddd1 4d3d
00000190: a1ea 063d 5af7 afbc f3e5 c23c 3254 5c3c
000001a0: 3d22 a1bd f4f7 21bd 7554 a03d 4bad ab3c
000001b0: 2687 b43b 8508 753d 2490 03bd 258c eabc
000001c0: c476 debd 80d7 6a3d 3b4a f0bd 6093 3dbd
000001d0: 5631 a73d 118e 9fbd 42bd 7f3c 8790 4d3d
000001e0: c48b 84bd 603e 263a 05cb 543c d56a 3dbc
000001f0: 5989 8b3d 4139 2a3d 7256 b9bd 093b 2e3d
00000200: 302a cfbc 9f3b 0bbb 00e0 a23b 87e3 cd3c
00000210: d564 20bd e8a4 fe3c dc96 c73d e240 afbc
00000220: 7657 35bd ea30 613c 1ab7 8e3b fe10 2abc
00000230: 3ed3 593d 3b3b 8ebc 38c0 89bd 0676 0f3d
00000240: 2844 9fbb 9b12 a73b b1ae 09bd 4aca d9bc
00000250: c663 8b3d 382c 17bd 8db1 843c 19d9 b13b
00000260: bd9b 92bd d8d5 013d e7ff 98bc 38e7 40bd
00000270: d505 10bd c819 9bbb bf06 d73c 4212 a5bd
00000280: 4b9f 24bd a2a5 b53d 01b6 aeba 3409 4d3c
00000290: 560f 3a3d 6755 14bd 1362 063d 6833 713d
000002a0: 3443 f539 be10 7fbd 8638 c6ba ae79 643d
000002b0: 5371 053c d8f7 edba 7ddb 8e3b 29fd 063d
000002c0: 8caf 5bbd 7686 d43c c08f 4c3c 64b4 05bc
000002d0: 05e9 0abd b9d1 8cbd 8d71 a53d f8f2 1b3d
000002e0: f409 0c3c c05c 24bc 7658 07bb d975 163d
000002f0: 671f 523b dc39 673c e901 a7bd cd7a 1abd
00000300: 68d3 b23d 86be 82bd b019 b53c f823 7bbc
00000310: 6bee c83c 6862 d13c ff83 373d 668c 44bc
00000320: fb4b 8d3d 7f46 ac3d f4ab db3c 79d8 413d
00000330: ff78 0bbd a653 a43d 5fa3 07bd 9010 69bd
00000340: ffd4 ab3b 5771 97bd 8d32 283d 8162 283d
00000350: a115 14bd 9d8b eabc 1734 ee3c 3ce7 be3d
00000360: 14b2 2fbd d075 4fbd 9651 183d 03c4 813d
00000370: bbb0 243d 9d5e 5ebb 94c1 81bc eb82 4fbd
00000380: ef95 1b3d eb7e b4bd 0d87 7e3b d142 c03b
00000390: 1f75 7dbd 0e11 9bbc f4b9 1b3d beb2 363b
000003a0: 01a1 0c3d 2f8f 54bd 2f5f f43b be80 92bb
000003b0: ae09 113d de1f 07bd 8b3d ed3b db48 0d3c
000003c0: 70db 693d 2c05 593d 6c00 53bd 668d 94bd
000003d0: b21b 4dbc 9e49 b4bd 1ce6 67bd 264f 4fbd
000003e0: 06ca 97bd e3cd 0dbd 1eb4 c43d 7e05 1ebc
000003f0: 8c1f 833d d3ef 6eba 11dc bf3c 66d8 483b
0.02239385 0.009397234 0.0721836 0.03224093 0.05062735 -0.008351199 -0.03531795 -0.0003998557
0.060985822 0.03321607 -0.09042654 -0.07927103 0.09404069 -0.026298208 -0.054663066 0.017747704
0.024165438 -0.022942567 0.09244512 -0.08588122 -0.023156099 -0.004196849 0.06210403 0.031835165
-0.071769595 -0.00987347 -0.040566277 0.10155293 -0.03756362 -0.031748917 0.050155833 0.03614674
0.038477045 0.016345438 -0.035167966 0.084336735 0.07101505 -0.019132541 -0.0043079657 0.035359338
-0.05769185 -0.07724451 -0.11358937 0.01633038 0.05467899 0.028414832 -0.035616253 0.015988022
0.032822188 0.0025875974 -0.004771083 0.03133591 -0.022168163 0.012336376 0.016120693 -0.014464088
-0.011381039 0.07260518 -0.049150314 -0.06990657 0.025660168 -0.008218026 0.011387864 -0.017308103
0.028236985 -0.0002064006 -0.003563843 -0.013078527 -0.04084908 -0.034110468 0.039680272 -0.09225695
-0.051776942 -0.03150934 0.011316249 0.03763404 -0.035964273 -0.034541063 -0.021548256 0.023833014
0.024859484 0.012340365 -0.044202093 -0.0139754275 0.06301385 0.01429386 -0.018033285 0.0055905734
-0.05375101 -0.038985454 0.07530901 0.018710658 0.060037125 -0.030954828 0.007371489 0.014769942
0.008237104 0.046240192 -0.042029962 0.05024897 0.032938603 -0.021480251 0.023791289 0.013447808
-0.078678586 -0.039543107 0.07828609 0.020956656 0.005509275 0.059822578 -0.032119885 -0.02863128
-0.108624965 0.057334423 -0.11732908 -0.046283126 0.08163707 -0.07790769 0.015609087 0.05018666
-0.06471971 0.0006341692 0.012987857 -0.011561115 0.06813306 0.041558508 -0.09049691 0.04253677
-0.025288671 -0.0021245254 0.0049705505 0.025132908 -0.03915866 0.031084493 0.09745571 -0.021393243
-0.044272862 0.013744572 0.0043553235 -0.010380028 0.053179972 -0.017362228 -0.06726116 0.035024665
-0.00486042 0.0050986535 -0.033613864 -0.026585717 0.0680614 -0.036907405 0.016197944 0.0054274914
-0.07158611 0.031698078 -0.018676711 -0.047095507 -0.03516181 -0.004733298 0.026248334 -0.08060123
-0.040190976 0.088694826 -0.0013329388 0.012514401 0.04542478 -0.03621426 0.032808375 0.058886915
0.00046780112 -0.062271826 -0.0015123046 0.055780105 0.008144694 -0.0018155528 0.004359661 0.032956276
-0.05363421 0.025943022 0.012485445 -0.008160684 -0.03391363 -0.06875939 0.08078299 0.03807351
0.008547295 -0.010031879 -0.0020652092 0.036733482 0.0032062174 0.014112916 -0.08154661 -0.03771477
0.08731729 -0.06383996 0.022106975 -0.0153284 0.024527749 0.02555962 0.044803616 -0.011996364
0.06899258 0.084118836 0.026815392 0.047325585 -0.034050938 0.08023767 -0.033114787 -0.05690056
0.005243897 -0.07394665 0.041063834 0.041109566 -0.03615344 -0.028631026 0.029077573 0.09321448
-0.042894438 -0.050649464 0.03718718 0.063362144 0.040207606 -0.0033930906 -0.015839376 -0.050661962
0.037984785 -0.0881327 0.003883782 0.00586734 -0.061879274 -0.01892903 0.038019136 0.0027877535
0.034333233 -0.051894363 0.007457636 -0.0044709137 0.035409622 -0.032989375 0.0072400025 0.008623327
0.057094038 0.052983448 -0.051514074 -0.07253532 -0.01251881 -0.08803104 -0.056615934 -0.05061259
-0.0741158 -0.034620177 0.09604667 -0.009644864 0.064025015 -0.0009114716 0.023420366 0.0030646562

sequential_4/conv2d_17/Conv2D f4 [32, 7, 7, 16]
00000000: 2d0d 323d 853d b63d 4017 86bc a042 4fbd
00000010: ad9c 33bd 4751 5bbd 4f87 2d3d c708 4a3d
00000020: e1f8 413d cb81 72bc 0209 83bc 8d76 d4b8
00000030: c28b 21bd 989f a13d 49ab e4bd de93 373d
00000040: 73cf c03d b61c bd3d 33a0 deba 9e40 77ba
00000050: c657 423c bd6c b83c 09e7 9f3d eb5e 003d
00000060: a112 343d d914 1f3c 7a61 e0bc e545 8b3c
00000070: 086e 123c b0e8 223b 796f 13bd 5255 dfbc
00000080: 7c5e 6e3d 82b4 223d 3e2b b2bb 0fba 60bc
00000090: ac6d 9dbb 0346 90bc ad3e 0a3c c530 a4bb
000000a0: 8698 293d bcd5 f8bc 6bfe 53bd 6141 123d
000000b0: e6be 483d 302d 043d 33e8 55bd b178 713c
000000c0: 3043 143d cb85 963a c49b b7ba d2c9 85bd
000000d0: 0425 363d b659 3bba 75c6 013c 0faf e53a
000000e0: 34eb 7d3c 40b6 773d 4894 a2bc 41f2 9e3c
000000f0: 88a8 91bc 96fb 2b3d 4b8a aabc d5a3 7dba
00000100: c53b a03c 4e07 2abd 9149 c3bc 1df2 15bd
00000110: 8880 4dbc 445b bd3a 197f 2fbc 22b4 c53a
00000120: 28d6 643d 125e 453d 0c12 4bbb fdaf 5a3c
00000130: 1a01 363b 5b68 5f3b 2fee 093c df57 ca3c
00000140: c7fc 313d e1a7 05bd b72d df3b 7b85 d6ba
00000150: 6c89 b43b 6318 d33c ca1e ad38 9ab1 063b
00000160: 6d23 3f3d bf8f d23c 660e b53b a375 0ebc
00000170: 78d3 b1bc 343f 513c ed87 d6bc 4c60 563d
00000180: 1231 2a3d 2a24 a6bb b90f 823c 4f03 fcbb
00000190: e5ae e13c 6cbf 203d adf9 31bd 12f8 073d
000001a0: 2528 113d 6dfc 0c3d c433 033b 708e b3bc
000001b0: 07d2 04bd b242 0a3d 28fa d2bc 210f 66bc
000001c0: 49d2 c83c a40a 103b ff28 113c ab4b 0dbd
000001d0: faf1 58bd 5b00 5c3d ce4f 4b3d 553c 38bd
000001e0: ad78 a83d 269b 9a3c efa6 c33c b364 c83c
000001f0: b6ee 1d3d 00a8 673d d0d2 2e3a 0320 0a3d
00000200: f893 043d df5c 2b3d 633c 8e3c 523c fabc
00000210: 712e 533d ea09 e4bb 13cd 2cbd 50de 9cbc
00000220: 3abd 803d 0e67 803d c4af c6bc fed2 f83c
00000230: e119 f33c 28f0 273d b3f5 4bbd 6277 d0bc
00000240: 6076 aa3b 95e6 a9bd 4642 b93c 14e9 2dbc
00000250: fb8d 15bd 737a 363d 795d 463b 2644 023b
00000260: 1e9f ef3c 82e6 a33c fbde 4abc d9c0 71bc
00000270: ca0a 15bc 75e1 7e3c 1ad8 b53b 6cf4 55bd
00000280: 18fe 8cbc 700e 2dbd 0672 303d 0c6e a2bc
00000290: 8daa 2e3c ced1 253d dedb c8bc 2123 b9bc
000002a0: fc0e ef3c a014 023d cfea 1ebd ff9a 60bb
000002b0: 5934 81bc 7e59 e63a 59b1 8dbc 6e5b 50ba
000002c0: e924 203c f098 1ebb e198 eebc 4246 22bd
000002d0: fd08 9139 0e90 d4bb 6f08 0d3d 50d7 03bd
000002e0: 3f3d edbc d23c c53b f130 043d 599e 843c
000002f0: 860f 88bd 6f69 d4bc e79c 823d c48b f13c
00000300: 9b98 8fbb 2528 79bd 7c58 933a 4e2c c33c
00000310: 439a 663c baca b03b 5bc4 92bc 4a7a 12bb
00000320: 5390 20bc 6d85 783d 5406 3c3b 24a6 e83a
00000330: e403 643c 002c bc3c d227 afbb 7eb5 f83c
00000340: 56b5 7bbd d479 1f3b cee6 963b c995 843c
00000350: a972 febb 1fdb 0e3d 53d0 53bd 813e 373c
00000360: f7b8 e03c e8f9 5d3c 0fc0 f43c 8c0e bc3c
00000370: e34a 1e3d 334d da3c 2cee c83c b14a 023a
00000380: 63b0 92bb 70e5 c23c f38f 443d 8e50 1f3d
00000390: 0224 7dbc a63b 263d b4ff 643c bbbd 403d
000003a0: 2c2d 2a3b 43b4 853c ed76 8d3b 7005 1dbd
000003b0: 5511 a0bb e024 303d f707 7f3c fa2b 49bd
000003c0: a7ad 64bc f121 13bd ee71 4fbd f2db 803c
000003d0: 30e7 223d 9d88 45bd 9d22 98bc 6d37 d53c
000003e0: 0fd4 a73b 17d9 453d 6d3a a73b e232 ca3a
000003f0: b201 d2bc dba0 f0bb 2463 203c 9192 b43a
0.043469597 0.08898453 -0.016368508 -0.050600648 -0.04385059 -0.05354431 0.04236537 0.049324777
0.04735649 -0.014801453 -0.015995506 -0.000101310296 -0.039439924 0.07891768 -0.111654826 0.04481875
0.09414568 0.09233992 -0.0016984999 -0.0009431931 0.011861747 0.022512788 0.07807738 0.03134052
0.04396308 0.00970956 -0.02739023 0.017001102 0.008937366 0.002485793 -0.03599498 -0.027262364
0.058195576 0.039722927 -0.005437284 -0.013716235 -0.0048043337 -0.01761151 0.008437795 -0.0050106966
0.041405223 -0.030375354 -0.051756304 0.03570688 0.04901018 0.032269657 -0.052223396 0.014738248
0.036196887 0.0011483965 -0.0014008214 -0.06532635 0.044468895 -0.0007146852 0.007920851 0.0017523485
0.015497971 0.06047654 -0.019846097 0.019402625 -0.017780557 0.041987978 -0.020817896 -0.0009675597
0.01955975 -0.041510873 -0.02383879 -0.03660785 -0.012542851 0.0014446755 -0.010711455 0.0015083591
0.055868298 0.048185416 -0.0030986099 0.013347623 0.0027771653 0.00340893 0.008418604 0.024700103
0.043453958 -0.032630805 0.0068108696 -0.0016366685 0.005509546 0.025768464 8.255018e-05 0.0020552636
0.046664644 0.02570331 0.005525398 -0.008695039 -0.021707281 0.012771416 -0.026187861 0.05233793
0.041550703 -0.005070229 0.015876638 -0.007690824 0.027549217 0.039245054 -0.043451 0.033195563
0.035438675 0.03442042 0.0020019868 -0.021918505 -0.03242686 0.03375501 -0.02575405 -0.014041693
0.024514334 0.0021978999 0.008859872 -0.03449599 -0.05296514 0.053711277 0.049636655 -0.044979412
0.08226142 0.018872809 0.023883311 0.02446208 0.03855773 0.0565567 0.0006668987 0.033721935
0.032367676 0.041836616 0.017362779 -0.030546341 0.05155796 -0.0069591897 -0.04218776 -0.019148976
0.06286092 0.06269656 -0.024253733 0.030374046 0.029675426 0.041000515 -0.049794864 -0.025447551
0.0052020997 -0.08295933 0.02261461 -0.010614652 -0.036512356 0.04455037 0.0030268116 0.0019877045
0.029250678 0.020007376 -0.012382264 -0.014755451 -0.009096811 0.015556683 0.005549443 -0.052235052
-0.017211005 -0.042250097 0.04307749 -0.019827865 0.01066078 0.04048329 -0.024518903 -0.022599759
0.02918195 0.03175795 -0.03879815 -0.0034272072 -0.015772032 0.0017574278 -0.01729648 -0.00079481944
0.009774425 -0.0024200045 -0.029125633 -0.039617784 0.00027663252 -0.006486899 0.03443187 -0.03218776
-0.028959868 0.0060192132 0.032273237 0.016188787 -0.06643586 -0.02592918 0.06377583 0.02948559
-0.0043822057 -0.0608293 0.001124158 0.023824837 0.014074865 0.0053952606 -0.017915895 -0.0022350722
-0.009800035 0.06067412 0.0028690295 0.0017749709 0.013916943 0.0229702 -0.005345323 0.03035998
-0.061452232 0.002433409 0.004605151 0.016184704 -0.0077651334 0.03487694 -0.051712345 0.011184336
0.027431948 0.013548352 0.029876737 0.022956155 0.038645636 0.02664814 0.024527632 0.00049702363
-0.0044765933 0.023791045 0.047988843 0.038895182 -0.015450479 0.04058423 0.01397698 0.04705594
0.0025966866 0.016321307 0.0043171556 -0.038335264 -0.0048848786 0.043003917 0.015565864 -0.049114205
-0.013957418 -0.03592104 -0.05064576 0.015729878 0.03977126 -0.048225988 -0.018571192 0.026027406
0.005121715 0.048302736 0.0051034004 0.0015426541 -0.025635574 -0.007343394 0.009789262 0.001377659

sequential_4/conv2d_18/Conv2D f4 [32, 7, 7, 32]
00000000: 6048 2cbc 3ec7 abbb bbe0 36bd 80a6 07bb
00000010: b821 f93b 655f 1e3d 922f 1fbc 1138 603c
00000020: 55c8 a13b 0988 25bd e9eb 13bd 5c66 a1bc
00000030: eaf2 4e3d e9c3 4d3c f03b 453c df90 a43c
00000040: 3402 0439 1f74 50bd 63a6 e43b 228b 3e3d
00000050: a839 923b b5af 943c 08bc 413b 0f04 2b3d
00000060: 2d37 793c 1b70 3e3d c421 163c ba20 8c3c
00000070: 4124 673c d776 d63c 3ecc 94bb e120 263d
00000080: bfe8 273d 9139 eb3b 1b3e a63c 62e7 563d
00000090: 3051 54bb f45f 33bb 97b3 a3bb 8ecd c3bc
000000a0: 0751 b8bb ee22 16bc 92d0 c93c 6ce8 6abc
000000b0: efb6 84bc 9af1 92bc 6715 253d 50ba 1fbc
000000c0: 99fb e9b9 0605 dbbc 311c 85bc d2e9 2a3c
000000d0: 8bb8 e93c 9a3e ebbc 7869 d9bc 6d27 93bb
000000e0: ca52 773c 82fe 1ebd 05d3 753d ee39 363b
000000f0: b6a8 e7bc 4537 943b 47b2 de3b b426 093d
00000100: 9f5d 2ebd b542 01bd a8b0 dc3c 3711 1f3d
00000110: d6f1 373d 5cf6 423d 20f3 babc b147 073d
00000120: b764 253d f4b5 403c 5534 ea3c 1079 7b3c
00000130: 49a5 193d 2c75 febb 899c 223d c55c 963b
00000140: 211c 0b3d 1102 4bbc 29b4 c43c 7e72 353c
00000150: 4379 2f3d 8aa6 083d ea22 163d 8a83 c93a
00000160: d23c 733d 958e bb3a 0a11 db3c edeb aa3c
00000170: 60a3 9abc 4190 96bc 6301 c33c 353d 073b
00000180: a110 30bd 2d4c e83c e4fd d9bc b5f6 55bc
00000190: 19d1 b3bb 702e 043d 8d58 5bbc d413 823c
000001a0: b4b1 63bc 3b37 02bd 71b1 bd3b 4a68 02bd
000001b0: 3174 8c3b 4956 b4bc 6623 bd3c 37c6 92bb
000001c0: e365 fb3c 853f f73b afa1 4fbc 76c8 853c
000001d0: 49a1 28bd 5a00 16bc e51d 4cbc 0fc5 58bc
000001e0: dd76 94bc c4f6 9d3c e28b b53c 0790 82bb
000001f0: 2859 1fbd 5282 3dbd 1d6b f63b 6775 90bc
00000200: 755d 7a3c ae2f 2b3d 7893 99bc e028 bf3c
00000210: 6d94 12bc 2952 0a3d 8a1c f03c 6482 afbc
00000220: 79b3 703c 37b7 4abd 3fed afbc 5584 b4bc
00000230: 3707 c73c 4c1d babc 6a27 fb39 6e96 263d
00000240: 3d1c 8d3c c482 833c 6c59 26bd f456 55bd
00000250: 94eb 433b 962e 84bc d966 17bc 1e81 02bb
00000260: a3e5 5cbc 4361 b3ba d4a5 83bc dc3f 0f3d
00000270: c5ba 5cbb cb13 123c d54d 86bc f05c cc3c
00000280: 2a68 9bbb f088 b7b9 9e3c 363d 8e2c 8a3c
00000290: 6acd 4cbd 4274 6cbc 6ed0 e93c efc1 363c
000002a0: dfd4 51bb 1172 e63c 5690 12bc 871a e4bc
000002b0: c429 113b b012 c0bc fc3f d6bc 3962 bc3c
000002c0: 3c46 1a3d b61f de3b 8427 b23b 87d3 31bd
000002d0: 390c 30bd 1c7a 193c d0ad 4ebd e4b3 2abc
000002e0: 0d8e 143c 7701 78bc c929 b33a 6c61 cbbc
000002f0: 2835 983b d321 b33c b770 c5bc 8386 393d
00000300: 6adc 413c d235 093d 852d 833c ea11 8f3c
00000310: e853 8a3b ab58 09bc e3b9 aebc e362 84bc
00000320: e585 023d 5f5e aabb 3e14 b6bc ce25 313d
00000330: 1ed7 1539 85bb c3bc 5206 763b 2545 0f3d
00000340: 4188 bdbb 514d b93c 8d0f 14bd 47d8 1f3d
00000350: 48ca 8dbb 286a 59bd 8440 46bd 19b9 75bc
00000360: 665c 04bd 4e0c ec3c 8907 713c 4e2c b2bc
00000370: 4eee 9ebc f605 1f39 b9f2 a9bb 4f0a 863c
00000380: 5700 16bd 4900 f43a 9d26 1d3d 28e3 9f3b
00000390: cbc9 58bb 6f53 b8bc 2af9 60bb 2548 f1bc
000003a0: 5f71 b73c 6483 90bc 65cd 333c 0f18 6ebc
000003b0: e4c0 34bb 6dfa d63c 2a96 1cbc 4408 e4bc
000003c0: 26de 24bc 485c 6ebd 4c3d 25bd f516 363c
000003d0: 0ac6 22bd 0be7 ab3c ed1e 00bc a70a 843d
000003e0: 6621 a7bc 9dd0 3e3c e4d1 553c 2fdc 753c
000003f0: 7d60 80bd d946 7fbd b3f9 a43c aa0c 2a3d
-0.010515302 -0.0052422574 -0.044647913 -0.0020698607 0.0076028965 0.038665194 -0.0097159315 0.013685242
0.0049372115 -0.040412936 -0.036113653 -0.019702129 0.05052463 0.012558916 0.012038216 0.020088611
0.00012589322 -0.05089199 0.0069778427 0.046519406 0.0044624396 0.01815019 0.0029561538 0.041751917
0.015210909 0.04649363 0.009163324 0.017105449 0.014107765 0.026179714 -0.004540949 0.0405587
0.04099345 0.0071784933 0.020293286 0.052466758 -0.0032397024 -0.0027370425 -0.004995774 -0.023901727
-0.0056248936 -0.009163601 0.024635587 -0.01433764 -0.01620051 -0.01793747 0.040303614 -0.00974901
-0.00044628678 -0.026735794 -0.016248794 0.010431724 0.02853038 -0.028716374 -0.02653955 -0.004490784
0.015095422 -0.038816936 0.060015697 0.0027805525 -0.02827869 0.00452319 0.0067961547 0.033484176
-0.042569753 -0.031557757 0.026939705 0.038834777 0.044908367 0.047598228 -0.02282101 0.033027355
0.040379252 0.011762131 0.028589407 0.015348688 0.037511144 -0.007765433 0.039700065 0.0045886957
0.033962373 -0.012390629 0.024011688 0.01107466 0.042840254 0.03336195 0.03665439 0.0015374285
0.059384175 0.001430946 0.026741523 0.020864451 -0.018876731 -0.018379332 0.023804372 0.0020635847
-0.04298461 0.028356636 -0.026610322 -0.013059308 -0.005487573 0.03227085 -0.013387811 0.015878595
-0.013897348 -0.031790953 0.005788975 -0.03183774 0.004286312 -0.0220138 0.023088168 -0.0044791955
0.030688232 0.007545414 -0.012672826 0.016330939 -0.04116944 -0.009155357 -0.012458299 -0.013230576
-0.018123085 0.019282706 0.022161428 -0.0039844546 -0.038903385 -0.04626686 0.007520093 -0.017634107
0.015281071 0.041793518 -0.018747076 0.02333492 -0.00894652 0.03376976 0.029310483 -0.02142448
0.014691227 -0.049491134 -0.021475432 -0.022035757 0.024295432 -0.022719048 0.00047903816 0.040670805
0.01722538 0.016053565 -0.040612623 -0.052084878 0.0029895054 -0.016135495 -0.009240829 -0.0019913386
-0.013482484 -0.0013685602 -0.016070284 0.03497301 -0.003368066 0.008915852 -0.016394535 0.02494666
-0.004742642 -0.00035006506 0.044491403 0.016866948 -0.050000586 -0.014432015 0.02854177 0.011154636
-0.003201775 0.028130563 -0.008945545 -0.02784468 0.0022150138 -0.02344641 -0.026153557 0.022996055
0.037664637 0.0067786826 0.0054368395 -0.04341462 -0.042980406 0.009367492 -0.05045873 -0.010418866
0.009067071 -0.015137068 0.0013669069 -0.024826728 0.0046450086 0.021866715 -0.024101598 0.045294296
0.011832336 0.033498593 0.016012916 0.017464597 0.004221428 -0.0083829565 -0.021328872 -0.016160434
0.031865973 -0.005199238 -0.02222645 0.043248944 0.00014289885 -0.023893127 0.0037540388 0.03497805
-0.005784065 0.022619875 -0.036147643 0.039024618 -0.0043270923 -0.053079754 -0.04840137 -0.014997744
-0.03231468 0.028814461 0.014711269 -0.021749642 -0.019400742 0.00015165642 -0.0051864055 0.016362337
-0.036621418 0.0018615808 0.038366903 0.004879374 -0.0033079262 -0.022500722 -0.00343282 -0.029453347
0.022392927 -0.017640777 0.010974263 -0.014532103 -0.0027580792 0.02624246 -0.009557286 -0.027835973
-0.01006273 -0.058193475 -0.04034166 0.011113872 -0.039739646 0.020984193 -0.007819873 0.06447344
-0.020401668 0.011646417 0.01305053 0.015006109 -0.06268404 -0.062323425 0.020138597 0.041515984

sequential_4/conv2d_19/Conv2D f4 [1, 7, 7, 32]
00000000: 8442 f63b 9b25 00bd 1ece 7cbd c0a5 403d
00000010: 8bc9 e5b9 eb42 ba3c 2de7 27bd fb4c 87bc
00000020: cbe0 243d 411a 75bd d4eb 24bd 36ad e3bc
00000030: 8d33 32bd 6402 133d 007f 0f3d a28f 73bc
00000040: 558b eb3c b260 1c3d ad47 1fbd 5c93 823d
00000050: 7267 db3c f52e 71bc 7a3e 28bd b18a eabc
00000060: 8923 b1bd 27ad e33c ded0 d83c 8b55 72bd
00000070: d68b a63d 3c01 aa3b b496 68bd 3838 7ebd
00000080: c8c7 263d bcae 583c 0e9a 4cbc 8352 dcbc
00000090: 23ad edb8 cbcd bf3c 32ac e1bc 6531 64bc
000000a0: 3879 96bc fc28 87bd fe59 633d 216e 0abd
000000b0: 5a0e d13b f308 7f39 d91e 35bc e0cb 813c
000000c0: e78e 28ba 6c9b cebb 9094 fbbc 69ba 103d
000000d0: b1c3 6ebd 1edb 6f3c 6e73 9ebb 1737 dabb
000000e0: 57b8 26bc a99c cb3c a47b 7f3d 8591 4fbc
000000f0: 12d8 343d 8b86 2b3d 2a71 60bd 5a4e 393c
00000100: 03f1 1d3d 908d 3c3d cc1f d73a 0f09 993b
00000110: 8fbf 3cbb c6a4 e6bc 82d1 623a 3256 e83b
00000120: 09c5 45bd 69b4 41bd 1af1 7b3b a6d1 32bc
00000130: 6b53 9d3c 9429 6c3c 88e8 0dbd afeb f8bc
00000140: c9ed 86bd 9dac 9a3d 96f6 033c a736 81bc
00000150: 3437 aabc a60b 89bc 5d60 263c b458 93ba
00000160: b060 19bb 91d0 14bc 3a41 aabc 58ef 8cbc
00000170: 0e92 4b3d 0a6a d03c bded e23c 1d75 45bd
00000180: 33ca 913c 9c50 b23c 87f7 7abd df35 843c
00000190: 5dc4 fe3b ed06 c43c 5c32 5d3b e088 2bbd
000001a0: 9f5a 863b 7ae3 d3bc 923b b2bc 81cf 6c3c
000001b0: cc35 11bd df64 653c db7d 5fbb 1c47 bd3b
000001c0: 683f 29bc 50dc a03c f4e2 263c 7abb 93bc
000001d0: 4954 93bc e7e8 ecbc b5b9 35bc 6fad 27bd
000001e0: 4062 1abc f4c4 4c3d 63f8 333d b54e 06bd
000001f0: 9993 3bbd f4eb 3cbd eafb 873b 729a 90bc
00000200: d5ac 453c 7aa4 653d 3f0a b03b 8772 163c
00000210: a28c 5e3c 2668 cdbb c53a b73a c98d 973b
00000220: 0f98 bfba d977 69bd 9ad0 febc 5914 3abc
00000230: 3dc7 71bd 50e1 463b 03f9 acbc 1d65 0a3a
00000240: a811 b33c 2916 26bc 8179 ffbb 7076 023d
00000250: d328 163d 8970 e43c e840 423d 47d9 893c
00000260: d380 8bbc 1915 1abd 72ec c5bc 0fa9 a0bc
00000270: df2b ddba 20e5 17ba 661c 0b3b 6cd4 a93c
00000280: 3958 183c ea25 7abd 315d 48bd 4430 443b
00000290: 6068 593d 56b7 c9bc d2d3 6cbc e1bf 4abd
000002a0: 774a 92bc 99c0 57bb d0a4 fbbc 505d e83c
000002b0: 075e 5f3d 3dd1 893d e97a 64b7 624b b0bc
000002c0: 06f8 ae3d 5703 003d 8175 583d 1e0b a83c
000002d0: 32e0 b7ba 3e11 e0bc be22 1cbd 5190 e33c
000002e0: 8d3b ccbc 9a1e 36bc ed6e b23c e2a2 d53b
000002f0: febd 3e3d fad9 94bc 16f7 63bd b59c ebbb
00000300: 53ee 2c3d b095 423d 4b44 1d3b d73e 6c3d
00000310: d1a6 923d 2efc 77bc 3556 7b3c 2ff3 05bd
00000320: 766f 87bc 28b9 0cbd 6289 aebc e0ab 903d
00000330: 8d2b 98bc b433 cd3c ac24 0a3d 847c f0bc
00000340: 80a3 edbc dbea 2c3d a263 d6bc 9b17 bb3c
00000350: 5769 8abc 70ba f9bc 3dc3 73bd 8809 61bd
00000360: b91d d6bc 0022 39bd 577b 033d 4131 aebd
00000370: a6e8 c83d 4d67 5b3c 41f2 64bc 992b 14bb
00000380: 3d2e db3c 40c4 7f3d 16ab 6ebb 82ae 3a3c
00000390: 6f74 dfbb d8dd 683d 64fb c13c d38b 21bd
000003a0: 6241 893a 95e1 2ebc b12c 893c 88e7 44bc
000003b0: a07e ea3a fb97 7a3d 04d9 593d 7459 a6bb
000003c0: aada 9bbc 7d29 f83b 4ee5 b4bc ca09 cb3c
000003d0: 8a11 c53c 785b 3cbd 5a3f 8fbd 07a1 68bd
000003e0: c354 153d a489 f33a a3dc 91bd dc76 b6bc
000003f0: cc39 dc3c 8144 b4bc 8b90 e1bc 8521 873d
0.0075152535 -0.031285863 -0.061720006 0.04703307 -0.00043828445 0.022736987 -0.04099195 -0.0165162
0.04025344 -0.05983949 -0.040263966 -0.027792554 -0.043506194 0.03589095 0.035033226 -0.014865788
0.028752962 0.038178153 -0.038886715 0.06375763 0.026782725 -0.014720668 -0.041075207 -0.028630586
-0.08649356 0.027792526 0.026466783 -0.05916361 0.0813214 0.0051881354 -0.056784347 -0.062065333
0.04071787 0.013225254 -0.012487901 -0.026894813 -0.0001133329 0.02341356 -0.02754793 -0.013927792
-0.018368348 -0.06599614 0.055505745 -0.033796433 0.0063798847 0.00024322029 -0.011054718 0.015844285
-0.00064299855 -0.006305149 -0.030710489 0.035334025 -0.058292095 0.014639644 -0.0048355376 -0.0066593993
-0.010175786 0.024854975 0.062373772 -0.012668972 0.044151373 0.041876357 -0.05479542 0.011310184
0.038559925 0.046033442 0.0016412674 0.0046702693 -0.0028800701 -0.028154742 0.0008652435 0.0070903534
-0.04828361 -0.047291193 0.0038443268 -0.010914242 0.019204816 0.01441421 -0.034645587 -0.03038582
-0.06588323 0.075524546 0.008054396 -0.01577313 -0.020778276 -0.016729187 0.010154811 -0.0011241646
-0.0023403578 -0.009082929 -0.020783056 -0.017203972 0.049699835 0.025441188 0.027701253 -0.04820739
0.017796611 0.021766953 -0.061271217 0.016138969 0.007774873 0.023929084 0.003375194 -0.04187858
0.0041001583 -0.025865305 -0.021756921 0.01445377 -0.035451695 0.0140011 -0.0034102115 0.005776299
-0.010330059 0.019636303 0.010185946 -0.018033732 -0.017984526 -0.02891965 -0.011091639 -0.040936884
-0.009422839 0.049992517 0.043938052 -0.032789905 -0.045795057 -0.04612346 0.0041499035 -0.01765177
0.012065132 0.05606506 0.005372315 0.009182579 0.013583334 -0.006268519 0.0013979307 0.0046250564
-0.001461746 -0.05699906 -0.031105328 -0.01135739 -0.0590279 0.00303467 -0.021114832 0.0005279349
0.021859005 -0.010137119 -0.007796467 0.031851232 0.036660027 0.027885692 0.04742518 0.016827239
-0.017029202 -0.037617777 -0.024160597 -0.019611863 -0.0016874037 -0.0005794335 0.0021226644 0.020731173
0.009298378 -0.061071314 -0.048917 0.0029935995 0.053078055 -0.024623554 -0.014454799 -0.049499396
-0.017857773 -0.0032921194 -0.030718237 0.028364807 0.05453303 0.06729362 -1.3618476e-05 -0.02152032
0.085434005 0.031253185 0.052846435 0.020513114 -0.0014028607 -0.027351972 -0.03811907 0.027778776
-0.02493074 -0.011115694 0.02178141 0.0065196613 0.04656791 -0.018170346 -0.05565556 -0.007190312
0.04221947 0.047506034 0.0023997005 0.057677116 0.07160724 -0.015135808 0.015340378 -0.03270262
-0.01653264 -0.034356266 -0.021305744 0.070640326 -0.018575454 0.025049068 0.03372638 -0.029356249
-0.029008627 0.042216163 -0.026170556 0.022838404 -0.016895933 -0.030484408 -0.059512366 -0.05494073
-0.02613722 -0.04519844 0.032100048 -0.08505488 0.09809999 0.013391328 -0.013973773 -0.0022608994
0.026755447 0.062443018 -0.0036417893 0.011394145 -0.0068193 0.05685219 0.023679443 -0.039439987
0.0010471756 -0.0106739 0.016744943 -0.012018092 0.001789052 0.061180096 0.053185478 -0.0050765816
-0.019025166 0.007573305 -0.022081997 0.024784941 0.024056215 -0.04598567 -0.06994505 -0.056794193
0.03645779 0.0018580449 -0.07122161 -0.022273473 0.026883028 -0.022005321 -0.027534744 0.0659819
